static/cifar10_model_binary.pth (torch, 249701 bytes, 20 tensors)

network.0.weight f4 [32, 3, 5, 5]
00000000: a66c 443b 99ba 81bd d848 4cbd d77f cf3d
00000010: 8c12 0dbc abbc 103d 0fbf 28bd fdc4 5db9
00000020: 4582 c03d 1410 c83d 2211 19bd d16f d7bd
00000030: a01c 8d3d c04a 9c3d 5353 993d fd4b d5bd
00000040: 01ee dd3b 8c51 563d d681 0ebd d9b0 d6bd
00000050: 536d 88bd d546 863d e74b 1e3d c519 60bc
00000060: c59d 0cbe 73c4 053e 4395 23bd 86c6 d9bd
00000070: e98a a93d a19f f43c f7f9 aa3d de45 cdbd
00000080: 4ba1 acbc 501b 873d 5d04 fbbc d99d aabd
00000090: 9c56 22bd b451 6abd 8733 85bc ac8a bfbc
000000a0: 54cc 963d 466e 95b9 7fce 3bbc e1f0 9f3d
000000b0: 6faf 2fbd 20dc ca3c 6fab 953d 1857 6e3c
000000c0: 3e92 bdbd 0116 2f3d e86c f0bd a7d6 2bbe
000000d0: 8f27 c03b 30a7 9b3d 6af1 0ebe b4b8 cfbd
000000e0: 1016 8bbd a54e 713d a1ea 16bd b16d af3c
000000f0: 163b 9e3d 2a0a ab3c 2ea1 13bd 2254 983c
00000100: b2f1 b13a 9781 efbd e902 2fbc 812e ca3d
00000110: abc9 133e 1dab 983d 9fda 42ba 21ef 8abd
00000120: c8b9 b63d 6701 a93c 9bc1 f03d a7ba 893d
00000130: b6ba 3d3b df37 f1bc b0f1 433c a68a f9bb
00000140: 5949 b83d bb21 b13d d7a5 313e e6df 2d3e
00000150: 2dc3 6c3c 9cb0 c5bc 208e 873d 80fd da3d
00000160: 58f1 e93d 2c34 acbd 8e66 c2bc cac6 1abe
00000170: a88f 0ebe d517 15be 61a9 9d3d fde8 84bd
00000180: 5b76 b8bd 567f 85bd 0109 f0bd 1f1f 88bd
00000190: e833 01bd 745f 2d3c c849 3c3d aaa0 09bc
000001a0: 6912 9fbc d97f 5d3d 9874 ae3d ba6c 033e
000001b0: de96 98bd 3765 693d dede afbd bbd9 9a3d
000001c0: db15 efbc f527 92bd 29dd b9bc 8dd3 dabc
000001d0: f0b8 1b3d c835 7abd b81e c9bd 9e72 8cbc
000001e0: 90aa 19bb c80d e9bc e423 853d 7c10 aabd
000001f0: b912 0c3e 2a65 c4bc 069a ccbc c421 6fbc
00000200: 0792 8b3c 6440 f03c 4384 5ebd 3f93 82bc
00000210: b0f6 98bd 995f 20bc cd4d e1bd 23e3 88bd
00000220: 488f 923d 909d 15bd 94f1 17bc 48c7 de3b
00000230: ed5f c23d 6613 1f3c 343e 9f3c 19ee 283d
00000240: 1fb4 d03c 2cc1 083b 2b5d 5bbd eb2f 4bbd
00000250: 87ff 0a3e 776e 753d c17e 5cbb 26d2 323d
00000260: be65 c8bd e543 023d d81f 0dbd 7f9e 1cbd
00000270: b9f7 05bd 3487 09be a31c 443d 3f6e 503d
00000280: cc17 63bd 7a74 163d e2d8 d2bd f26e 06be
00000290: f4e7 55bd dd96 673d 163c 033e c89b 0b3d
000002a0: 2655 37bd de7a c13d f779 9f3d b3dd d13d
000002b0: f4fb 22bd 5a3f 8c3d 8ebf 7ebd e0e6 99ba
000002c0: f2e2 6ebd 9217 c43c ce18 323d e6ce 20bc
000002d0: 18ea 893d 002e a93c 50c6 afbb e44a d1bd
000002e0: 60ff 793d c359 8f3d 0b2f b4bd 52f0 fc3b
000002f0: 45e6 1cbe db1d 01be 4ce0 9fbd 7028 cd3d
00000300: e26a 44bc 82d6 663d 40ff 0abe 9d74 5fbc
00000310: 4028 2dbd 9ded 8dbd b4b5 38bd fdb2 7eba
00000320: 8576 d73d fc65 c53d 5c58 733d bc48 87bd
00000330: 7a21 b43d 3a24 6abc 44f4 c93c 73ed 923d
00000340: 4b55 67bd 59d0 f0bd ebd3 5fbc 7913 153e
00000350: 967a b83c 8fcc 60bd b9f1 9a3c 7048 2f3e
00000360: 9afa ce3d 906e 373d 1995 d83d 61ae 403d
00000370: 535e cc3c 7c7d a63d 6a71 773d 82d4 663d
00000380: 7c6f 593d 7636 bf3d aada 263e fa0b 86bd
00000390: a321 c73d 6ee3 97bd e9e3 8f3d 4956 b73d
000003a0: 3c4e 6abd 1809 933d 5de0 39bd de35 2d3c
000003b0: 75d4 ea3d 64bb b73c 8efc c2bd 0a9a ecbd
000003c0: e543 c23d ca91 abbd cde5 05bd 194a d9bd
000003d0: 4192 183d ea0c 5bbd cf7a bd3b 0186 723c
000003e0: b047 e6bd b1cc 0dbe 9efa 9fbc bca5 a3bc
000003f0: f558 b43b b72e 6f3d aed4 843d ab5f 95bd
0.0029971986 -0.06334419 -0.049874157 0.101318054 -0.008610379 0.035336178 -0.041197833 -0.00021149586
0.09399847 0.09768692 -0.037369855 -0.10519374 0.068902254 0.07631445 0.07486596 -0.10414884
0.006772757 0.052323863 -0.03479179 -0.1048295 -0.06661477 0.06556479 0.038646605 -0.013678019
-0.1373206 0.1306322 -0.03993727 -0.106335685 0.08278448 0.029861273 0.08348458 -0.10023092
-0.021073004 0.06597006 -0.030641729 -0.08330888 -0.03963338 -0.057206824 -0.016259922 -0.023381554
0.07363191 -0.00028501655 -0.011462807 0.07809616 -0.042891916 0.024763167 0.07308089 0.014547132
-0.09256409 0.042745594 -0.11739522 -0.16781102 0.0058640908 0.07600248 -0.1395928 -0.10142651
-0.067913175 0.058912892 -0.036844853 0.02141461 0.077261135 0.02087887 -0.036042385 0.018594805
0.0013576059 -0.11694639 -0.010681846 0.09872151 0.14432399 0.07454512 -0.000743309 -0.067838915
0.08922154 0.020630552 0.11755677 0.06725054 0.00289504 -0.029445587 0.011959478 -0.007615405
0.08998365 0.08649012 0.17348419 0.16979942 0.01445083 -0.024132065 0.06618905 0.106928825
0.11422986 -0.084083885 -0.023730543 -0.15114895 -0.13921988 -0.14559872 0.07698322 -0.064897515
-0.090069495 -0.06518428 -0.11720467 -0.06646561 -0.031543642 0.01058184 0.0459688 -0.008400122
-0.019417958 0.054077003 0.08518332 0.12834445 -0.07450651 0.05698129 -0.085874304 0.0756106
-0.029185226 -0.071365274 -0.022688465 -0.026712203 0.038018167 -0.061086446 -0.09820312 -0.017144497
-0.002344761 -0.028448954 0.06500986 -0.083039254 0.13679017 -0.02397402 -0.024975788 -0.014595453
0.017037405 0.029327579 -0.054325353 -0.015939353 -0.07468927 -0.009788417 -0.110011674 -0.06683948
0.07156235 -0.036527216 -0.009273905 0.0067986585 0.09490953 0.009709215 0.01943884 0.041242693
0.025476513 0.0020867093 -0.05355565 -0.049606245 0.13574038 0.0599198 -0.0033644887 0.043657444
-0.09785031 0.03180303 -0.034454197 -0.03823709 -0.03270695 -0.13430482 0.047878873 0.05088639
-0.055442616 0.036732174 -0.10295273 -0.1312826 -0.05222316 0.05654036 0.1281589 0.03408411
-0.04475894 0.09447263 0.07786935 0.10247364 -0.039791062 0.06848021 -0.0621944 -0.001174178
-0.0583219 0.02393702 0.043480687 -0.009814953 0.06734103 0.020651817 -0.005364217 -0.102193624
0.06103456 0.069995426 -0.08798035 0.007719078 -0.15322216 -0.12609045 -0.07806453 0.100174785
-0.0119883735 0.056356914 -0.13573933 -0.013638643 -0.042274714 -0.06930087 -0.04509516 -0.00097160024
0.10520653 0.096385926 0.059410438 -0.0660567 0.08795448 -0.014290864 0.024652608 0.07174196
-0.056477826 -0.11758489 -0.013661365 0.1455821 0.022519391 -0.054882582 0.01891409 0.17117476
0.10106392 0.044783175 0.10575313 0.0470413 0.024947321 0.08129403 0.060410894 0.056355007
0.053084835 0.093365595 0.16294351 -0.06545253 0.097232126 -0.07416426 0.07025892 0.089520045
-0.057203516 0.07179469 -0.045379985 0.010571925 0.11466304 0.022428222 -0.09520827 -0.11552818
0.09485606 -0.083774164 -0.03268986 -0.10609836 0.037248854 -0.053479113 0.005782462 0.014802457
-0.11244142 -0.13847615 -0.019528683 -0.01997649 0.0055037686 0.05839416 0.06485878 -0.07293638

network.0.bias f4 [32]
00000000: 9620 c83c 7214 2fbc aa94 8b3d aecc 083d
00000010: 42c2 8abd 2a4e 7dbc 0bad 4dbd 9948 9abc
00000020: 4c0e 90b9 dfdb b6bd ff09 0d3b 793b 413b
00000030: e7b4 233d 077f 2b3c ad86 c13c b470 443d
00000040: 25cf 9e3d d2e8 b43c dee2 bb3d 12b7 cc38
00000050: a512 293b 1127 233b adc6 4c3d 2b15 1f3c
00000060: dd84 2eb9 fd3e 9a3d 84e3 af3b d211 1b3c
00000070: 316c 28bb 33c2 c03d 2eba 923d 91e5 973d
0.0244296 -0.010686027 0.06815465 0.033398323 -0.06775333 -0.01546053 -0.050213855 -0.018833445
-0.00027476472 -0.08928656 0.002152085 0.0029484911 0.039967444 0.010467297 0.023623789 0.047959045
0.077543534 0.022083674 0.09174131 9.7615775e-05 0.0025798467 0.0024895112 0.04999416 0.009709637
-0.00016643429 0.07531545 0.005367698 0.009464698 -0.0025699253 0.094120406 0.07164417 0.07416833

network.2.weight f4 [32]
00000000: 2b30 803f 6f04 8c3f f702 683f 620a 6c3f
00000010: c348 5e3f 156d 813f e06f 6c3f d477 7c3f
00000020: e3a9 813f d5ef 6a3f 3f75 8e3f 8af2 8f3f
00000030: 492c 5f3f b7d6 663f 9f48 813f c473 6c3f
00000040: 4cdc 543f ec3d 6a3f 782e 623f 0f72 8e3f
00000050: 4eb5 973f 5475 7e3f d823 6b3f 253c 543f
00000060: a0ef 7e3f 6599 703f 527f 823f 8f47 783f
00000070: 4a49 7a3f 414d 803f 3d85 753f 1a90 803f
1.00147 1.0938853 0.90629524 0.9220334 0.86829776 1.0111414 0.9235821 0.98620343
1.012997 0.91772205 1.1129531 1.1245892 0.8717695 0.9017138 1.0100287 0.92364144
0.83148646 0.91500735 0.88352156 1.1128558 1.1852205 0.9939778 0.9185157 0.82904273
0.9958439 0.9398406 1.0195105 0.9698419 0.9776808 1.0023576 0.9590643 1.0043976

network.2.bias f4 [32]
00000000: c812 4d3e 68bb e03d 79aa 5f39 9c5b 173e
00000010: a3c2 be3d 941f e43d 4161 163d d588 183c
00000020: 6ad1 403e d925 6d3e 71a8 303e 5b29 403e
00000030: 31ee 1fbc 9dc5 273e 7bb8 0fbd 265f 1d3e
00000040: 20e8 bd3b 0aba ecbc d556 b83d a5c4 013e
00000050: baa5 923d d030 de3d 3b39 f63b 7685 d93c
00000060: 5bad a93d 53d0 c5bc 680d ff3d 7943 be3d
00000070: 5515 71be 9741 113e 2a44 cfbb 9908 453e
0.20026696 0.10973245 0.00021330443 0.1478104 0.09314468 0.111388355 0.036713842 0.009309967
0.18829885 0.23158969 0.17251755 0.18765776 -0.009761379 0.16383977 -0.035088044 0.15368327
0.0057954937 -0.028897304 0.09000937 0.1267267 0.07160516 0.10849154 0.0075141466 0.026552897
0.08285018 -0.024147188 0.12453729 0.09290213 -0.23543294 0.14185177 -0.0063252645 0.19241561

network.2.running_mean f4 [32]
00000000: 2bec 2b3d 3610 ff3c 5d65 823e fad1 d53d
00000010: c6b5 fc3c b6db 223d 0120 af39 0613 833d
00000020: 02c2 0c3d feef d03c 6f2e ed3c bd1f 023d
00000030: 5ae9 b13e 6601 903c d5ad 793c 6407 213e
00000040: 6d7d 883d 8575 8f3c 994c 863c 6cca 083d
00000050: 6859 bd3c aef1 333d 36d9 3b3d 5504 e33e
00000060: 4e31 8a3d b970 4e3e cd3f ce3c cadd 313e
00000070: 464c 863a f2b2 7c3c 9eb2 3b3d badd ef3d
0.041973274 0.03113566 0.2546796 0.104404405 0.030848395 0.039760314 0.00033402446 0.06400113
0.034364708 0.025505062 0.028952805 0.03176855 0.34748346 0.017578792 0.015239199 0.15725476
0.06664548 0.017512092 0.016393946 0.03339617 0.023113921 0.043931656 0.045861445 0.44339243
0.067476854 0.20160188 0.025176907 0.17369762 0.001024612 0.015423523 0.04582464 0.11712213

network.2.running_var f4 [32]
00000000: ebc5 d23b 6ce1 993b 981e 0b3d ee3c ce3b
00000010: 600e 3f3b a643 073c ef00 0b38 88c9 773c
00000020: 928c 673b edfb 7a3b 4fb3 3b3b 1ee0 113b
00000030: a594 6e3d fcc9 3a3b 06ca 023b f335 8a3c
00000040: aa66 4a3c ecd3 253b 310b 2a3b 40d6 d43b
00000050: 8cf4 853b 6b97 883b 4633 813b 6780 513d
00000060: 02f5 913c 5f14 a23c 00ca 8e3b a7dd a63c
00000070: 12bc fe38 1b08 283b 5513 853c 060c f73c
0.006432285 0.004696062 0.033964723 0.0062938845 0.0029152855 0.008255875 3.3141052e-05 0.015123732
0.003533159 0.0038297132 0.0028640812 0.0022258828 0.058247227 0.002850174 0.001995684 0.016871428
0.012353579 0.0025303317 0.0025946612 0.006495267 0.00408799 0.004168441 0.00394288 0.051147845
0.017817024 0.019785104 0.0043575764 0.020369364 0.00012146695 0.0025639597 0.01624457 0.0301571

network.3.weight f4 [64, 32, 3, 3]
00000000: f222 823d 3d9c 923c c251 0739 a74e 203d
00000010: c42f 1d3d 2ed6 3d3c e891 b7bc 9ee3 81bc
00000020: dc47 8bbd 3314 903c 70c3 143b f162 d23b
00000030: de3e 613c 3c36 38bd a9b6 473d 80fb ca3c
00000040: 4e38 bfbc b877 0fbc 1e8a fcbc acfd 593d
00000050: 8a18 0a3d bb4d b13b 0331 67bc e4e6 9bbd
00000060: 5bf7 72bd df5b bebc 8a44 8bbd e7cd 97bd
00000070: 0eea ebbc 3954 943b c51b 8cbd 5164 673d
00000080: 7b8d 40bd ac61 083d fe93 e5bc c1db 31bd
00000090: e322 d53c bf18 443d 652b 773d b6de 423b
000000a0: ae7b 3ebb 29ca 62bc 5822 85bc 13ab b53c
000000b0: cb7d d4bc e72f d83c 6d7b 24bc 7c7e 343d
000000c0: 6eeb d53d 58dd 9f3d 45ac 123e 6501 863d
000000d0: 1be0 a43d af4f 7e3d 32e8 07bd 6bf2 413d
000000e0: ce8c fe39 4e61 793c 6344 653c a1d5 6c3c
000000f0: 1a8c fcbc 75f6 b9bc 6f48 d4bc 96ce e6bc
00000100: 9fa8 3f3d 353a ccbc 2534 a8bb 0ad4 e8bc
00000110: 78a8 e0bb b26c 823c 4d55 20bd cff6 c2bb
00000120: a076 b1bc 7e07 71bd f316 c1bc 1e05 adbc
00000130: 7978 1c3c 0de1 133d d705 053d 88c3 5b3c
00000140: b51c 66bc 6536 9cba 069a 68bc d42f c53c
00000150: 3c0c 34bc 3862 40bc a783 8d3d 2dcb 1bbd
00000160: dcc4 edbc 6ec3 77bd 51b8 9f3b f90a d7ba
00000170: 22c9 f3bc b268 4a3b 30ee 8bbc 1bf3 cf3c
00000180: c49c 443d 254e 0f3d b124 7d3c 6e1f 7e3d
00000190: 1d55 6ebc 60e9 a93c 44f1 713d cfdf 4cbc
000001a0: 35ef 853c cb5d e13d 695d 8c3d 3cd8 acbc
000001b0: 1900 f93c c80e 38bd 593f 83bd f237 db3c
000001c0: cab9 5a3b b1a7 cd3c 9545 f43c 4c81 d03c
000001d0: 78ac 833c 1bae d1bb 1206 863a 507f 30bd
000001e0: c7dc 5a3b 4cb6 8a3d fcc5 6a3d a215 a33d
000001f0: aeb4 9b3d cf4f 69bc 9d0c 67bc 1fb8 abbb
00000200: 6a82 c63d b962 853d 8fc8 0e3d 3761 1a3b
00000210: a897 4dbc b3f6 983b 7fc6 b0bc 248c 973d
00000220: b232 473d 01d7 763d 8999 543c cea6 423d
00000230: a5f1 8f3b 728b 043d 3d95 263d a703 133d
00000240: 0d37 773d 920d daba dd36 983c b095 f93b
00000250: 40cb 213d 45f7 613c 6840 cb3c ffe4 a73c
00000260: 07f1 ffbc 3c7a 06bc d7fd e53c 6f64 66bd
00000270: ac89 b8bc c9f9 da3c 39aa 6bbd 7fb0 57bd
00000280: 265f 753c 6280 57bc d1f1 7cbc e917 ecbc
00000290: 7571 b63c 230a 8c3a ec53 00bd 8706 a23d
000002a0: e4de a5bd c05f e6bc 65a4 933c b5c2 a43c
000002b0: c81a cf3c 007b 9f3a 6778 ab3c e70e b43d
000002c0: eb55 893d 2d05 21ba 32af d33a fdc3 d63c
000002d0: 3a63 ad3c d9b7 7c3d 8eee 003c cdc4 d43d
000002e0: e0e5 cd3d e6d6 1e3d 0689 8a3d 8c51 153c
000002f0: 2b09 363d 117b b53c ba19 a83d 1099 063d
00000300: 8e08 b73d 6b18 5b3d 90e0 133d 9a70 80bc
00000310: 4d88 bf3d fbb6 263c 0164 283d 3842 8b3c
00000320: 6a5e b63d 05b0 5abd d651 e33c 96a3 ad3a
00000330: d398 a73c b7b2 d93c e6ca 133d 8b0c c4bc
00000340: 506d 4fbd 8d5f 49bc e05a 6bbd 7c6e 61bd
00000350: 47d9 cfbd d1b0 80bc e2e1 0ebd ae08 573d
00000360: 7edb 343c 9bd0 ccbc dd30 a73c b8c4 1b3c
00000370: 2527 8abc e4e8 243d ed84 d53c 872d f3bc
00000380: 140a 03bd cb42 eb3c a580 b5bc 229a 81bd
00000390: feb2 023d 9ce0 29bd e533 9ebd 6bcf dbbc
000003a0: 9b49 ce3b 5692 6abd 1ae6 c3bd 05bb 07bd
000003b0: 4f61 14bd 75d9 23bd 9042 8bbc 20cc b5bb
000003c0: f76f 70bd 10f0 92bd 036b 7bbd 6381 253d
000003d0: f42b e93c 9a72 ac3c 3f56 7d3c 6385 83bd
000003e0: 4efb c7bc e3dd b33c 254a f43c 54a9 fd3b
000003f0: b56e d73d fa3d 4d3d d87d c9bb bae7 353d
0.063543215 0.017896766 0.0001290506 0.03913751 0.03837563 0.011586709 -0.02240844 -0.015855607
-0.068008155 0.017587757 0.0022699498 0.006420486 0.013747899 -0.044973597 0.048758183 0.024778128
-0.023342278 -0.0087565705 -0.030827578 0.053220436 0.03371481 0.0054108775 -0.014110806 -0.07612398
-0.059317928 -0.023237167 -0.06800182 -0.0741232 -0.02879813 0.0045266417 -0.06841234 0.056492154
-0.047009926 0.033296272 -0.02802467 -0.043422464 0.026017612 0.047875162 0.06034412 0.0029734797
-0.0029065418 -0.013842144 -0.016251728 0.022176301 -0.025938889 0.02639003 -0.010039193 0.044065937
0.10445295 0.0780589 0.14323528 0.06543235 0.08050557 0.06208771 -0.033180423 0.04735033
0.00048551563 0.015220953 0.013993355 0.01445523 -0.030828524 -0.022700528 -0.025913445 -0.02817468
0.04679167 -0.024930099 -0.0051331692 -0.02842142 -0.0068560205 0.01592097 -0.03914385 -0.005949832
-0.02166301 -0.058845036 -0.023570513 -0.021120604 0.009550207 0.036103297 0.032476272 0.0134133175
-0.01404493 -0.0011918066 -0.014196878 0.024070658 -0.010989245 -0.011742167 0.06909876 -0.03803556
-0.029024534 -0.06048911 0.004874267 -0.0016406468 -0.029758994 0.0030885157 -0.01708135 0.025384476
0.048001066 0.034986634 0.015450642 0.062041692 -0.01454666 0.020741165 0.05906798 -0.012504532
0.016349414 0.11004218 0.06853754 -0.021099202 0.030395554 -0.04493597 -0.06408567 0.026760075
0.00333749 0.025104376 0.029818336 0.025452279 0.01607345 -0.006398929 0.0010225198 -0.043090165
0.0033395754 0.067730516 0.05731772 0.079631105 0.07602821 -0.014240219 -0.014102128 -0.005240455
0.09692843 0.065129705 0.034859236 0.002355648 -0.012548365 0.0046680807 -0.021579025 0.073997766
0.04863233 0.060263637 0.012976059 0.04752236 0.00439282 0.032359548 0.04066967 0.035892155
0.060355235 -0.0016636124 0.018580848 0.007616721 0.039500475 0.013791864 0.024810985 0.020494936
-0.03124286 -0.008207854 0.028075142 -0.056248125 -0.022526585 0.026730435 -0.057535384 -0.052658554
0.014976298 -0.013153167 -0.015438513 -0.028819995 0.022270897 0.0010684173 -0.031330034 0.07911401
-0.08099154 -0.028121829 0.018022725 0.020112375 0.025281325 0.0012167394 0.020931436 0.08791905
0.06705841 -0.0006142434 0.0016150235 0.026216501 0.021165479 0.06169877 0.007869376 0.10389099
0.10053611 0.038779162 0.067644164 0.009113681 0.044442337 0.02215341 0.08208032 0.032860816
0.089371786 0.053490084 0.03610283 -0.015678693 0.09352169 0.010175462 0.041110996 0.016999349
0.08904727 -0.05339052 0.027748983 0.0013247605 0.020458614 0.026574476 0.03608217 -0.023931762
-0.050641358 -0.0122908475 -0.057459712 -0.055037007 -0.10148864 -0.015709313 -0.034883387 0.052498512
0.011038659 -0.025001815 0.020409042 0.009507351 -0.016864369 0.040261164 0.02606436 -0.029684795
-0.031992033 0.028718373 -0.022156069 -0.063282266 0.03190898 -0.04147397 -0.07724742 -0.026832303
0.0062953955 -0.057268463 -0.09565373 -0.03313734 -0.036225613 -0.040002305 -0.016999513 -0.0055480152
-0.058700528 -0.071746945 -0.06138135 0.040406596 0.028463341 0.02105074 0.015462457 -0.06421926
-0.024411824 0.02195639 0.029820511 0.0077411328 0.105191626 0.050107934 -0.006149035 0.044410445

network.3.bias f4 [64]
00000000: 8911 b3bc 89f2 24be 05e2 89bd 4699 80bd
00000010: 8cfa 5ebd f453 58bd 904b 92bd a5c6 b0bd
00000020: e5ca abbd 4292 04bd e2bb 7fbd 1936 8e3d
00000030: 4624 873b 19e5 80bd e416 03be 8291 2ebe
00000040: 4f71 803c 7ad5 0bbe e9bb e5bc 6f56 57bd
00000050: abad cabd c4f9 32bd cd87 37bd 53da 1fbe
00000060: a78c e8bd 9460 82bd 9775 3ebe a450 e2bc
00000070: 0787 6cbd 9595 de3c 209d 7cbd 4c10 70be
00000080: cd72 6dbd 4701 513c 0233 24be d70f 19be
00000090: cd53 2fbe 5a3a 313c c248 963c 3ae9 0abe
000000a0: a788 55bd caec a7bd 1f59 2abe c54d 9f3c
000000b0: b15d 39bd 4808 ddbd 0c05 82bd 3b38 253d
000000c0: 572a ff3c 6145 d73c 1001 bbbd f618 c5bd
000000d0: 5dc7 28bd b6a3 cebd f1c6 05be 63e1 f7bc
000000e0: 868d 83bd 1f0a 60bd 7a05 26be 4ec8 00be
000000f0: 2c10 8fbd 4ac7 babd ae80 1fbe 0be0 acbd
-0.021858947 -0.16108145 -0.06732563 -0.062792346 -0.05443816 -0.05281444 -0.07143319 -0.086316384
-0.083883084 -0.032366045 -0.06243504 0.06943912 0.004124197 -0.06293697 -0.12801701 -0.17047694
0.01567903 -0.13655654 -0.028043704 -0.052572664 -0.09896406 -0.043695226 -0.044807244 -0.15610628
-0.11354952 -0.06366077 -0.18599544 -0.027626343 -0.05774596 0.027170936 -0.061673284 -0.23443717
-0.05797081 0.012756652 -0.16035083 -0.14947449 -0.17121811 0.010817135 0.01834524 -0.13565531
-0.052132275 -0.08199461 -0.1663556 0.019446263 -0.045255367 -0.10792595 -0.06348619 0.04033683
0.031148119 0.0262782 -0.09131062 -0.096239015 -0.041205753 -0.10089819 -0.13064171 -0.03025884
-0.06423478 -0.054697152 -0.16213027 -0.1257641 -0.069855064 -0.091200426 -0.15576431 -0.0844117

network.5.weight f4 [64]
00000000: 2c97 623f 66d8 7b3f 4e8e 773f b589 863f
00000010: fa69 843f 81dd 733f 7151 763f 76fd 803f
00000020: c01f 6b3f 3a4b 6e3f 1569 783f e252 763f
00000030: a410 633f 19ec 663f 571c 803f e8dc 843f
00000040: 3db6 673f 33ce 763f 343e 7b3f a2ec 803f
00000050: c442 823f b85e 803f 9639 783f 8758 803f
00000060: 2fd8 6f3f 3852 7c3f d4fd 783f da62 703f
00000070: 8c1d 783f 131f 653f fb99 643f 4ad0 883f
00000080: 8890 773f 960c 7d3f 60d2 733f 7d2d 7c3f
00000090: 8805 7e3f ecef 853f 03d9 5e3f e36f 7f3f
000000a0: 41c5 853f b7bb 7a3f 51f3 863f fa12 693f
000000b0: 9784 883f 7dc1 813f e26c 693f 0227 833f
000000c0: 1749 6b3f 3fbc 6a3f c4ac 8b3f 0f1b 813f
000000d0: b1ae 783f b897 823f ad5d 6c3f fed2 7f3f
000000e0: 4b9c 703f f9cf 703f 07fa 843f e787 863f
000000f0: 6020 793f cbb7 763f 8210 823f 7521 673f
0.8851192 0.9837707 0.96701515 1.0510775 1.0344841 0.95259863 0.9621802 1.007735
0.9184532 0.93083537 0.9703534 0.9622022 0.88697267 0.90204006 1.0008649 1.0379915
0.9051245 0.96408385 0.9814179 1.0072215 1.0176625 1.0028906 0.9696287 1.0027016
0.93689245 0.98562956 0.9726231 0.93900836 0.96920085 0.8950054 0.89297456 1.0688565
0.9670491 0.9884733 0.9524288 0.9850691 0.9922719 1.0463843 0.87049884 0.997801
1.0450822 0.9794268 1.0543004 0.9104458 1.0665463 1.0137173 0.91181767 1.0246279
0.919084 0.9169349 1.0912099 1.0086383 0.9714156 1.0202551 0.9233044 0.99931324
0.93988484 0.9406734 1.0388802 1.0510224 0.97315025 0.96374196 1.0161288 0.90285426

network.5.bias f4 [64]
00000000: d869 693e 7156 ce3d b9e1 903e 1c5c bbbd
00000010: c5b5 f83c 7966 db3d 1156 6f3d a6ef 9e3e
00000020: 5cf5 543d 7cc0 253e c1cb 5b3e 62f5 543d
00000030: 69ee 91bc 4301 0a3e daee a6bd 1c29 a0bd
00000040: f960 b33d 7124 923e 52bc 573e 9103 ca3d
00000050: 12fe 8b3e dc26 c73c e793 a2bd 6c0f e33d
00000060: 8fd1 e03d be18 ab3e 81cb bbbd 3165 de3d
00000070: 5c88 273e b9e5 3b3e 70a5 483d 898c 933d
00000080: e134 be3d 3797 17be a1bd 293e 15b5 253e
00000090: 8c01 623d 81b7 2b3e 69de 7c3e 2146 563d
000000a0: d925 563e 61bb 1f3e a218 1d3e 4430 2f3e
000000b0: 6a64 8f3d 64a2 5c3c fba6 fe3d e478 6a3e
000000c0: d6ed 893d db13 6a3e c536 b2bd eae8 623e
000000d0: d500 213e abad c33d 405c b03d 8c64 8c3e
000000e0: 0a10 573d dfa2 ac3d 862d 123d 7a83 9f3c
000000f0: 0aea 043e 4e30 823d 7988 b13d 98a7 723e
0.22794282 0.10075081 0.28297213 -0.09148428 0.030360112 0.107129045 0.05843169 0.31042212
0.051991805 0.16186708 0.21464445 0.051991828 -0.017813878 0.13477044 -0.08151026 -0.07820341
0.087587304 0.28543428 0.21067932 0.098639615 0.27342278 0.024310522 -0.079383664 0.11086926
0.1097747 0.33417314 -0.09169675 0.108591445 0.1636061 0.18349351 0.0489859 0.07204539
0.092874296 -0.14803778 0.16576244 0.16182359 0.055177256 0.1676922 0.24694218 0.052312974
0.20912875 0.15598823 0.15341428 0.17108256 0.07001574 0.013466451 0.12434193 0.22897679
0.06734817 0.22859137 -0.08701853 0.22159162 0.15722974 0.09554609 0.08611345 0.2742046
0.05250553 0.08429503 0.035687946 0.019471873 0.12979904 0.0635687 0.08668608 0.23696744

network.5.running_mean f4 [64]
00000000: bc6f e13e ffb4 9f3e a807 b63e 4d05 033e
00000010: 705b 6d3e 3722 903e f987 5c3e 6c51 593e
00000020: 1d7f 023f f412 c53e ca79 8b3e d751 b23e
00000030: 5f4b dd3e 8a2f 813e ecd7 f33d 0d8d 463e
00000040: 3a48 cc3e 1ab0 403e 470a c63e 4227 8e3e
00000050: 839a a03e 7fc6 a63e 4ee4 853e 3219 683e
00000060: 05c0 463e ca5f 913e f646 413e 25bd a63e
00000070: 21da 413e 6d0c c83e 71cf e73e 65ac 2e3e
00000080: 24f4 a33e e744 b83e 4318 7c3e b72b 5c3e
00000090: 054a 003e 705f 823e b812 f43e 944e 343e
000000a0: 8a16 603e 271d 823e a4b6 043e 3e07 023f
000000b0: dbff a93e 8fac 2e3e dde0 c53e 25fa eb3e
000000c0: e256 be3e be2d a23e bef3 8a3e abc9 8f3e
000000d0: e35a 983e 7c32 303e 725d d13e c9a0 883e
000000e0: e55c 2b3e c14e 983e 00df 283e 5322 483e
000000f0: a995 933e 1aa8 293e 5073 323e c1f2 973e
0.4403056 0.31192777 0.35552716 0.12794991 0.23179412 0.28151104 0.21536244 0.21222466
0.5097521 0.38491023 0.27241355 0.34828064 0.43221566 0.25231582 0.11906418 0.19389744
0.39898854 0.18817177 0.38679716 0.27764326 0.31367883 0.32573316 0.26150745 0.22665861
0.19409187 0.28393394 0.18874726 0.3256618 0.18930866 0.3907198 0.45275453 0.17057951
0.32022202 0.35990068 0.2461863 0.21501051 0.12528236 0.25463438 0.4767053 0.176081
0.21883598 0.25412866 0.12960297 0.507923 0.33203015 0.17058013 0.3864812 0.46089283
0.3717566 0.31675524 0.27139086 0.28083548 0.2975684 0.17206758 0.40891606 0.2668517
0.16734655 0.29747584 0.16491318 0.19544344 0.2882512 0.16568032 0.174268 0.29677394

network.5.running_var f4 [64]
00000000: bca1 023f 747c 8e3e 57fb a13e e6c6 d23d
00000010: 5a6e 173e 4c6a 4a3e 9603 0d3e ec1c 093e
00000020: 1ff3 263f 0764 8b3e 0532 2f3e 6caf a13e
00000030: 949c e23e fbbc 283e 5239 923d 8ef6 513e
00000040: ab08 653e 5406 1a3e 2e95 b53e 06a6 883e
00000050: d726 833e 1902 a03e 5d86 b13e eec0 6b3e
00000060: 385e 1b3e 2bcf 453e 8fde 263e 23b3 9d3e
00000070: 6e8b ea3d f10c 103f 1312 243f c350 1d3e
00000080: c96a 3c3e 0350 b63e 129e 813e 16f7 233e
00000090: 9617 943d 43f4 213e dbd7 063f 30be eb3d
000000a0: aaa9 0e3e e501 8e3e fe10 7d3d 8c32 073f
000000b0: 602d 503e 0f21 e33d 47ed ea3e 0a1c 9b3e
000000c0: 4dc9 853e b0bf 963e 2419 a13e b1fd 863e
000000d0: ade4 923e b8a3 0d3e db4e 0d3f 08a7 3d3e
000000e0: 607b f13d ca69 6f3e 88a2 de3d 4700 f53d
000000f0: 73c8 443e ebf8 a43d cdcf 143e a97b 983e
0.5102804 0.27829325 0.3163707 0.10291843 0.1478819 0.19767112 0.13770899 0.13389939
0.65214723 0.27224752 0.17108925 0.3157915 0.44260085 0.1647834 0.07139839 0.2050421
0.22366588 0.15041476 0.35465378 0.26689166 0.2561557 0.312516 0.34672824 0.23022816
0.1517266 0.1931731 0.16295837 0.30800733 0.11452375 0.56269747 0.6409008 0.1536284
0.1840011 0.3560792 0.2531591 0.16012225 0.07231061 0.15815835 0.5267312 0.11510885
0.13931909 0.2773582 0.061783783 0.52811503 0.20329809 0.1109029 0.45884153 0.3029483
0.26130143 0.2944312 0.31464493 0.26365426 0.2869009 0.13831985 0.5519845 0.18520749
0.1179111 0.23380199 0.10870844 0.119629435 0.1921709 0.0805529 0.14532395 0.29781845

network.6.weight f4 [64, 64, 3, 3]
00000000: eeac ee3b 8b5c 49bc a9fd 1cbd cd86 733c
00000010: 1b7a f43c 35ee 92bc 2b9b 8fbd fb7d 49bc
00000020: 311b 9bbb c9ac c0bc 690c 36bd 694f 833b
00000030: 15fe 7cbd 8253 42bc 0f4a 23bd e0cb 6abd
00000040: fccf 47bd 9f5f 0bbc 72ef 3c3d bfe2 30bd
00000050: 491c 77bd 00a5 063d fdd7 4ebd 432e f3bc
00000060: 731e 71bc accd ddbb 807b b5bc ff19 d6bc
00000070: f64f 493b b99e 883d 70a0 2c3c ef97 933d
00000080: d596 b43c 6551 2a3d 5b5d ab3d 785f ab3d
00000090: c0a2 47bd 8fbe 49bc 68b5 d73c fac2 fabb
000000a0: 1a79 1abd 72df d7bc 7172 333d 9e09 92bc
000000b0: fc0f 813d 5c7b 813b 685e 473d 811b 27bd
000000c0: 89c5 483c 6ec0 4c3d ae0b d2bc c7e4 bc3c
000000d0: 5998 763d 28a5 7ebc 041b f83a 4fa9 2b3d
000000e0: ed4d 0f3d 538e 773b 3071 503d 452c 613d
000000f0: 9473 4abd d1b2 28bd bebc 35bd 31fa 08bd
00000100: 3e07 8cbc a64e a33b 74c7 53bd 4e1c 0bbd
00000110: f168 19bd 9264 943d 3825 d03c 2408 3c3a
00000120: 30f0 6d3c a753 fbbc 25fe 34bc 63c3 ec3c
00000130: 1d40 733b 9b41 403d c859 ffbc 662f 14bd
00000140: 23a0 37bd ffb7 7b3d f74e 213d ba6d 48bd
00000150: 97ac b939 0b1d b1bb bb54 dd3b af22 a2bc
00000160: 932e a2bc 79f8 3bbd a489 f9bc 4e8f d83c
00000170: e055 3ebd a93f 79bd cf03 a038 0d2b 65bd
00000180: 9589 b4bb 0216 003d 288d acbc 3701 f7bd
00000190: 59f4 84bc 7678 48bc 1a0e 8cbc 6663 633c
000001a0: 4691 473d 8dc3 55bd b6d1 20bd 4237 1d3c
000001b0: f323 84bd 8d54 3abd d0e1 6ebd 50ff 2ebd
000001c0: ed18 a03a fe1f 61bd 10e3 b0bd 4bc1 ccbc
000001d0: 8df3 06bc 8f63 c83c c280 053d a362 7d3b
000001e0: f05e 483c eb47 613d 9c1a bc3d c4e8 77ba
000001f0: 641f 3b3d 82b8 cbbc febb cd3b d153 7fbd
00000200: 2077 d43c 8b61 b33c 7588 8d3b 00cd 593d
00000210: e063 bdb9 3664 7fbb b604 1d3d 3960 44bd
00000220: 6d8b 583b ae78 48bd b3dc 2bbd 8972 3dbc
00000230: f5fd 3b3c 1acb 48bd 333a 853c 380b df3b
00000240: 3466 1d3c a198 823d 5d7a d33c 3e03 803c
00000250: 9651 da3c 9691 c33c c179 ee3c 97e7 543d
00000260: 35ce d439 ec02 3ebd ecbd ac3c 96c7 23bd
00000270: decc 993c e26a b3bc 3e53 553c 309d 04bd
00000280: 1d00 553c 35c1 e53c 725d b03c a68a 03bd
00000290: f593 a7bd f81a d73c 7f11 2abc ea43 3fbd
000002a0: 4863 473d 2f5d b63b 7c40 a03c 54fd 0ebd
000002b0: 8125 03bd 024a 13bd 971d 45bc 71a1 c4bc
000002c0: b649 f73c 359c b4bc 16cf d0bc dff6 b0bb
000002d0: d906 643d 52c5 1e3c a9cc e3ba e785 f5bc
000002e0: a9ee 68bd 71fb dcbc 0f39 01bd 0ac8 f9bc
000002f0: 1a8c ae3b a757 07bd 7039 82bd 82e7 e8bc
00000300: e838 03bd c6ae 99bc d6d0 22bc e3aa 913b
00000310: 57ef 753a e1a2 bc3c 77ae ce3c 097a 223c
00000320: bd7b 9eba 9648 063b 817d 9abc 7c46 3a3c
00000330: a791 4cbc 8b5e 3b3c c0b5 533d 45ef 9b3b
00000340: a5d4 03bd b861 14bb ceff 7d3b 8772 8b3d
00000350: 8112 323d 93cf 843d 4851 edba 90bf c33c
00000360: 130d a7bd 2120 6bbd b84b a73a fd37 013d
00000370: 2cf4 b33b 1264 843d 9509 163c e409 333c
00000380: f2f7 3d3d f313 83bc 78ab 92bb b21f 7bbd
00000390: eb48 85bb a78b 83bc a908 5bbc 275d 3fbd
000003a0: 8721 4ebd 2933 07bd 455a 833d eee7 1e3d
000003b0: b7e8 15bb 7ee1 ff3b f550 feba 5853 40bb
000003c0: 0a49 6a3d c3bc 0c3d 5a0f a43d 6d41 303d
000003d0: 016a 67bc facb 223d b0c1 dfb9 2855 10bd
000003e0: 936f ecbc dea0 ce3a 6001 46bd 0757 b3bc
000003f0: 6369 b33c e4cb cd3c 69ac e43c 257a f53c
0.0072837984 -0.01229013 -0.038327847 0.014863682 0.02984338 -0.017935852 -0.07012018 -0.0122981025
-0.004733466 -0.02351989 -0.04444543 0.004007269 -0.06176575 -0.01186073 -0.03986555 -0.057323337
-0.048782334 -0.008506685 0.04612679 -0.043184992 -0.06032971 0.0328722 -0.05049895 -0.029685145
-0.014716732 -0.0067689028 -0.022153616 -0.026135443 0.0030717826 0.06670899 0.010536298 0.072067134
0.022044579 0.04158153 0.083674155 0.083678186 -0.048739195 -0.012313499 0.026331618 -0.0076526375
-0.037713148 -0.026351664 0.04381031 -0.017826851 0.06301877 0.003951473 0.048674017 -0.040797714
0.012254127 0.049988203 -0.025640335 0.023058308 0.060203884 -0.015542306 0.001892895 0.041909512
0.034986425 0.003777404 0.050889194 0.05497386 -0.04942663 -0.041186158 -0.04436945 -0.033441726
-0.017093297 0.004983741 -0.051703885 -0.03396254 -0.037453596 0.07245745 0.025408372 0.0007172844
0.014522597 -0.030679537 -0.011046921 0.028901761 0.0037117072 0.046937566 -0.03117074 -0.036178015
-0.044830453 0.06145477 0.039381947 -0.04893277 0.0003541454 -0.0054050735 0.0067544854 -0.019791929
-0.019797599 -0.04589126 -0.03046114 0.02643552 -0.046468616 -0.060851727 7.630104e-05 -0.05594926
-0.005509565 0.03127099 -0.021063402 -0.120607786 -0.016229795 -0.012235751 -0.017096568 0.013878679
0.048722528 -0.052188445 -0.039262496 0.009595694 -0.06452169 -0.04549079 -0.05832082 -0.042723954
0.001221446 -0.05496215 -0.08637059 -0.024994513 -0.008236778 0.024461536 0.032593496 0.0038663528
0.012229666 0.055000227 0.09184763 -0.0009456987 0.045684233 -0.024868254 0.006278514 -0.062335793
0.02593571 0.021897098 0.0043192455 0.05317402 -0.00036123302 -0.0038969642 0.03833457 -0.047943328
0.0033042089 -0.048943214 -0.041958522 -0.011562952 0.011474122 -0.049021818 0.016263103 0.0068067573
0.009606887 0.06376768 0.025815183 0.015626546 0.026650231 0.023873132 0.029110791 0.051978674
0.00040589427 -0.046389505 0.021086656 -0.03998526 0.018774446 -0.021901552 0.013020335 -0.03237647
0.013000515 0.02804623 0.021528933 -0.032114647 -0.081825174 0.026257977 -0.010380148 -0.046695627
0.048678666 0.0055653076 0.019561999 -0.03490956 -0.03201819 -0.03595925 -0.012030981 -0.024002763
0.030186515 -0.022047142 -0.025489371 -0.005400523 0.055670593 0.0096905995 -0.0017379719 -0.029971076
-0.05686823 -0.026975365 -0.031548556 -0.030490894 0.00532676 -0.033042576 -0.063586116 -0.028430704
-0.032036692 -0.018760096 -0.009937486 0.00444542 0.0009381673 0.023026885 0.025229676 0.009916791
-0.001209132 0.0020490042 -0.018858673 0.011369344 -0.012485898 0.011436115 0.051687002 0.0047587478
-0.032185216 -0.0022641253 0.0038757208 0.06808954 0.043474678 0.06484904 -0.0018105889 0.023895055
-0.081567906 -0.057403687 0.0012763655 0.031547535 0.005491754 0.064643994 0.009157558 0.010927651
0.046379037 -0.016000723 -0.004476007 -0.061309524 -0.0040675304 -0.016057802 -0.013368764 -0.046719696
-0.050324943 -0.033007775 0.06413702 0.038795404 -0.0022874305 0.007808863 -0.0019402789 -0.0029346552
0.05719856 0.034359705 0.080107406 0.043031145 -0.014124394 0.03974531 -0.00042678183 -0.03523746
-0.028861796 0.0015764495 -0.048341155 -0.021892084 0.021900838 0.025121637 0.027914243 0.02996547

network.6.bias f4 [64]
00000000: 5798 82bd 7ea8 20bd c724 b1bd 8d5c 2ebe
00000010: 9281 52bd c1b7 9dbc 8f74 a7bc 3bc2 5ebc
00000020: c274 08bd 7019 a1bd 1b08 96bd b61a 2bbe
00000030: 1d64 12bd 817e ddbc e34f 8fbc 1bfa 0bbd
00000040: 1a9f 3bbd 527c 70bd 950b 12be 5cce 1dbe
00000050: 3b34 e8bd c914 9bbd b3b7 94bd e3d6 8ebd
00000060: e526 c8bd 0332 86bd b4fe e1bd 9ddd 14bc
00000070: 6537 6dbd 8d5e 1bbd a7f7 06be fd45 08be
00000080: cb10 8ebd ca07 0cbe 0c7a 25bd 8738 883c
00000090: 7806 bebd fabf 1bbd 95ce 38bd dc06 26be
000000a0: 4e90 80ba b1a5 7abd e0f5 15be ae43 7bbc
000000b0: 1072 d2bd f84c ecbd 4634 c2bd ce6b 59bd
000000c0: 86e6 ebbd b45d 11be 4e7b eabc 4c06 0dbe
000000d0: 1331 f0bd 5cc0 7cbd ca84 b7bd 51e4 3dbd
000000e0: 7cd2 9ebd c744 7ebd 27a9 06bd aaf7 d2bd
000000f0: 2f67 80bd c3b8 6ebd 1949 14bd ead5 25bc
-0.06376713 -0.039223187 -0.08649593 -0.17027493 -0.0513931 -0.01925266 -0.020441322 -0.013596113
-0.033314474 -0.0786618 -0.07325765 -0.16709408 -0.035740007 -0.02703786 -0.017494148 -0.034174066
-0.045806028 -0.05871231 -0.1426223 -0.15410751 -0.11338087 -0.07572324 -0.072616 -0.0697458
-0.097730435 -0.06552508 -0.11034909 -0.00908604 -0.057914156 -0.037931968 -0.1318041 -0.13307948
-0.06936797 -0.13674846 -0.040399596 0.016628517 -0.092785776 -0.03802488 -0.045118887 -0.16213554
-0.0009808631 -0.061193172 -0.14644575 -0.01533596 -0.10275662 -0.11538118 -0.094826266 -0.053081326
-0.11518578 -0.14195901 -0.02862325 -0.13771933 -0.1172811 -0.061706886 -0.089608744 -0.046360318
-0.077549905 -0.06207731 -0.03287616 -0.103011444 -0.06269681 -0.05828167 -0.036202524 -0.010121802

network.8.weight f4 [64]
00000000: 3dfd 7c3f dec3 7e3f 5999 783f 7167 813f
00000010: 6fe2 713f e897 753f a997 813f 24f1 783f
00000020: c20e 6b3f 303d 773f 24a5 853f 3603 7f3f
00000030: b9c3 823f e200 743f befe 6b3f 166c 6f3f
00000040: d6ea 813f ea77 793f 1e46 7e3f 654f 843f
00000050: 53c4 743f d666 783f 755a 823f 78d3 7e3f
00000060: bb5a 6d3f bac4 783f ee75 6f3f b8d4 733f
00000070: ebb9 703f 8112 723f 8ced 803f a4e7 7a3f
00000080: 66c9 693f 8fa4 813f 85cb 733f c814 653f
00000090: 6d1b 773f f338 783f 0767 763f 6dfc 723f
000000a0: bf0b 693f 4373 793f 9cbf 833f 999c 703f
000000b0: 37cc 743f dd27 823f 3a25 723f 7b0f 723f
000000c0: d84f 6c3f 60a9 843f b452 7d3f e527 6e3f
000000d0: 4689 723f ac8f 6c3f 1632 763f 5b9f 713f
000000e0: 57bb 783f 4a39 743f e90d 6d3f e991 7c3f
000000f0: fe34 763f 1e08 7b3f 4d16 6c3f 16fb 793f
0.9882391 0.9951762 0.9710899 1.0109693 0.94486135 0.95934916 1.0124408 0.9724295
0.91819394 0.9657774 1.0441022 0.99614275 1.021598 0.9531385 0.9218558 0.935243
1.0149791 0.974486 0.9932574 1.0336729 0.95612067 0.97031915 1.0183855 0.99541426
0.9271657 0.9717518 0.9353932 0.9524646 0.9403369 0.94559485 1.0072494 0.98009706
0.91322935 1.0128344 0.9523242 0.89484835 0.96526223 0.969619 0.9625096 0.9491642
0.9103355 0.974415 1.029285 0.9398895 0.9562411 1.0168415 0.94588053 0.9455487
0.9230933 1.0364189 0.9895432 0.93029624 0.9474071 0.92406726 0.96170175 0.9438378
0.9716086 0.95399916 0.9259935 0.9866014 0.9617461 0.9805926 0.9222153 0.9764875

network.8.bias f4 [64]
00000000: e83b 4c3d 697c 853c f4d6 2d3d 500e 2ebd
00000010: f44f 2b3d 24a9 043d 5325 34bd 40fe 11bc
00000020: dec3 5f3d 1c83 db3d 9629 503d 15fd edbc
00000030: b3d5 12bd 2265 743d 9083 1ebd b028 7ebc
00000040: dfee 28bd be3a 04bd 6936 2cbd 3250 4abd
00000050: 20bb 423d 589d 2c3d 2a78 333d 1613 643d
00000060: 1601 433d 0e60 37bd 1071 263d 54e0 4e3d
00000070: c7d9 133d 52ab 503d 7507 973c ec2e 893d
00000080: b798 9e3c a81c 2d3d 6373 25bc d033 edbc
00000090: 1a22 163d 1cd8 3f3d 639e 2b3d 2447 99bc
000000a0: 4aac 77bc 74c2 733d d3cd 20bd 1cfb 7d3d
000000b0: f4ed 2fbd 40a6 29bd 0054 1dbd 1b86 10bd
000000c0: 0402 eb3b 0c5e e1bc b622 803d fe1c 9fbc
000000d0: 8673 343d 7e22 353d 2a17 2d3d 6780 653d
000000e0: 0133 583d e2b6 b33c 9a0c 303d 5017 333d
000000f0: f7a4 153d ecea 233d b2c9 61bc e78a 4ebc
0.04986182 0.016294675 0.042441323 -0.04249412 0.041824296 0.032387868 -0.043980908 -0.008910716
0.054630153 0.107183665 0.05082091 -0.029051343 -0.03584833 0.05966676 -0.038699687 -0.01551263
-0.04124343 -0.032282583 -0.042044077 -0.049392886 0.047541738 0.042142242 0.04381577 0.055682264
0.047608458 -0.04476934 0.04063517 0.050506905 0.03609636 0.050944634 0.018436173 0.06698403
0.01935993 0.042263657 -0.010098311 -0.02895537 0.036653616 0.046836957 0.041899096 -0.01871068
-0.0151167605 0.059511617 -0.03925879 0.062007055 -0.04295154 -0.041418314 -0.038410187 -0.035284143
0.007171871 -0.027510665 0.062566206 -0.019423004 0.044055484 0.044222347 0.04225842 0.056030657
0.052783016 0.021937791 0.042980768 0.043723404 0.036534276 0.04001896 -0.013780998 -0.012606359

network.8.running_mean f4 [64]
00000000: cf49 853e 1947 8d3e 0b48 b33e a02b 053e
00000010: a73d c23e 86fc c23e 4fde 9f3e 0161 c73e
00000020: 28cb ef3e 308a 9e3e f519 a53e 6e31 813e
00000030: d9b3 d53e 3378 363e 4828 753e 85c0 153f
00000040: b160 9a3e dad7 3a3e 3601 d23d eaec cc3d
00000050: 3ffe 523e 4aa0 5f3e a467 663e 89ae 103f
00000060: 25ce 4a3e 1c57 d33e 10fd b23e 9a15 093f
00000070: dc3b 283f ab14 883e 6da8 f53e d34a 523e
00000080: c457 a33e 2f58 d33d 16a2 013f b23e 0b3f
00000090: 7b9e 8a3e 375e 673e fa1e 753e 145f 7d3d
000000a0: d38d 223f 1ab6 e43e ba4c ac3d 65b0 163f
000000b0: 66b4 873e a9de 0b3e f6a9 d93d d4b8 a33e
000000c0: ff48 d03e b8a2 dc3d 93a0 c63e 7e9d 5d3e
000000d0: f464 7c3e 6a9e 683e d138 a63e 0f8a b13e
000000e0: 7426 163e 192c fb3d 53fa 533e bbea 9b3e
000000f0: 2024 fc3e fd45 9f3e eb40 a43e 3b91 043f
0.26032874 0.27593306 0.35015902 0.13004923 0.37937662 0.38083285 0.31224295 0.38941196
0.46834683 0.30964804 0.32246366 0.25233024 0.41738775 0.1781929 0.23941147 0.58496886
0.30151895 0.18246403 0.10254137 0.10006125 0.206048 0.21838489 0.22500473 0.5651632
0.198052 0.41277397 0.34958696 0.53548586 0.6571634 0.26578268 0.4798006 0.20536356
0.31902897 0.10319554 0.5063795 0.5439254 0.27074036 0.22594534 0.23937598 0.06185825
0.63497657 0.44670182 0.08413072 0.58862907 0.2650482 0.13659157 0.106281206 0.3197695
0.40680692 0.10773224 0.38794383 0.2164211 0.24647886 0.2271668 0.32465222 0.34675643
0.14663106 0.1226427 0.2070096 0.30452523 0.4924631 0.31108084 0.32080778 0.51784104

network.8.running_var f4 [64]
00000000: 52e3 a93e b4ad 953e 5d89 d33e 9d7b 1e3e
00000010: fbf6 f63e 4f4d fd3e 89b4 b93e ee86 0d3f
00000020: 3dd3 093f 90e6 bf3e 00ce cf3e efbd b43e
00000030: 08ae 373f 582b 373e 4b06 7b3e ac06 413f
00000040: 0a46 b23e 3378 213e 875e c43d 385a e93d
00000050: 0764 6b3e 7df0 713e e221 643e 01a4 8e3f
00000060: 1bb0 783e 4ed4 313f 5f41 013f a543 213f
00000070: a19b 863f 56d2 e73e bb9d 2b3f 46f6 8c3e
00000080: a78c b53e aba5 ce3d 3221 413f 6d24 1a3f
00000090: c19a a83e 3067 8a3e 908d 863e cad2 833d
000000a0: 98ba 413f a321 0e3f 32f3 cd3d f80d 423f
000000b0: 2be4 c73e ad38 233e b3d0 e63d c71e d13e
000000c0: c5b5 383f e259 bc3d 02bf 003f e0e3 813e
000000d0: 75ec 923e 48e6 8d3e f090 c03e e13f 0d3f
000000e0: 0503 343e 9e80 fd3d f498 793e d7b1 eb3e
000000f0: 92b0 4c3f 18cc c93e b26c a03e a6cb 343f
0.33181244 0.29234087 0.41315737 0.15476842 0.48235306 0.49473044 0.3627055 0.5528401
0.5383795 0.37480593 0.40586853 0.35301158 0.71749926 0.17887628 0.2451412 0.75400805
0.3481906 0.15768509 0.09588342 0.11394161 0.22987376 0.23626895 0.2227855 1.11438
0.24285929 0.69464576 0.50490373 0.6299384 1.0516244 0.4527766 0.6703755 0.27531642
0.35458872 0.100901924 0.7544128 0.6021183 0.32930568 0.2703185 0.2627988 0.06436689
0.75675344 0.55520076 0.100561514 0.75802565 0.39041266 0.15939589 0.11270275 0.40843794
0.7215236 0.09196831 0.50291455 0.25369167 0.28696027 0.27714753 0.3761058 0.55175596
0.17579277 0.123780474 0.24374753 0.4603412 0.79956925 0.39413524 0.31332928 0.7062324

network.10.weight f4 [2, 1024]
00000000: 8082 0bbc 2082 3f3d bf42 fa3c fcaa 2b3c
00000010: 4f70 91bb 888f 793c 5016 0c3c 87b9 ac3c
00000020: a6f7 edbc 4d65 df3c e76d ac3c 400b 893d
00000030: d2cf 0dbc 9faf 46bc 8c6d 073d 7448 613d
00000040: 8cc0 efba 28fb 90bd fbd2 4fbd 751d 31bd
00000050: fc35 b23b df0e c9bc 22e8 3fbd 1f6b d6bb
00000060: 0881 b83c d592 8e3b 8288 ac3c 8cd1 153d
00000070: f5cf c13b 46fd 383d cbbd 0f3d 9667 8e3c
00000080: 36b6 30bc 72fe 3f3d c036 843c 1220 a83b
00000090: ac9d 153b 3f98 9abc 04bd b5bc e3cf 103d
000000a0: f276 3e3d a84e 2d3d 3140 973c 3733 193d
000000b0: dc4b 7c3d 3e0a f839 09bb 4dba aa7f 463d
000000c0: 2289 a7bc 2018 65bc 8ba8 4d3b 698c c939
000000d0: 0ad6 ffbc 3a9f 8f39 f520 efbb c498 38bd
000000e0: 5aae 19bb 7761 ddbb 2d83 cabc b28b 38bd
000000f0: afe1 d8bc 69d2 4fbd 29b6 6dbd a0a7 afbd
00000100: edcc 083d 60e5 01bd c6bf 143d 0c5a b83b
00000110: a81e 053d 7be2 f13c 3dd1 a03c 7d4a 853c
00000120: f027 163c 6578 083c 739f 2d3d 9939 87bc
00000130: 293a 443c 48b3 a7bc ac6a 1abc 3871 a63c
00000140: 77f1 01bd 4d87 bebc 6548 19bd a121 77bd
00000150: e9de 1fbc 1c62 923c f3e8 363c 2535 42bc
00000160: 69f0 42bb e014 e33c 8451 023d f66c e2bc
00000170: 37df 4f3c 1708 bd3c 5a57 003d 6ff1 fd3c
00000180: 77ff 84bb cdcc 533c c567 b33b 9658 e93b
00000190: 7cc5 1fbd e555 203b f25d 3fbc 2bc9 bfbc
000001a0: cde1 63bc a28b 4bbd cc8f 92bd 54fc 7abd
000001b0: 65e8 82bb d4b4 6bbc e152 8dbd abc4 eabc
000001c0: d3d5 28bc d80f c43c 690b a7bc 043f 7a3c
000001d0: 3cd7 09bb d38d a5bd 7f66 9cbd 53d7 2ebd
000001e0: 5b30 d53c 407b 70bc cdd2 97bd 92ae 46bc
000001f0: 1de1 4d3b 5d2b 903a 2fc7 bfbb 11ca 233c
00000200: e278 a8bc cf03 8cbc e19b 1bbd e0f4 13bd
00000210: 916e 1a3c c470 39bd e0ed c23c 26f6 76bb
00000220: e867 833c e380 a73c ebc4 3a3c 327b 01bc
00000230: 5bf7 9e3c b210 b43c b532 e23b a3df efbc
00000240: 6bee 3fbd 3e94 21bd 99f6 29bc 8ce9 8cbc
00000250: 48d9 4dbc 7b68 b53c ea1a b23c d861 4ebc
00000260: 5439 e93b 37b4 e43c 298e 9b3d b332 af3c
00000270: a719 6abc 315a f73b 6a72 4f3c 5d63 e03c
00000280: b5a9 14b9 a1d4 8b3b e22e 953c b7d9 8ebc
00000290: 5889 5ebc 43f7 383b 64fb 8a3c 29dd e6bc
000002a0: 057b bfbc aef6 3f3d fa7f d03d f123 2a3d
000002b0: 415b 19bb b586 7a3d 2a4e bf3d a639 503d
000002c0: 0507 793c 9f34 353c 1636 d0bb f696 d53c
000002d0: b7f2 a1bc 53cb bebb d3a5 eabb 735e de3c
000002e0: 7cf9 b2bd 6b8a a9bd f5db b4bc 27a4 503d
000002f0: cb20 8abd eb2b a33c 10ea 49bc 542e ab3c
00000300: fe68 fa3b 06be db3b ba94 f93a de49 043d
00000310: 565e 04bd 04f2 64bd ddd2 9abd da63 32bd
00000320: 805d 0fbd 2cea debc 482a c1bc 7b69 13bd
00000330: 8c61 a9bd a617 97bd 1d9a 09bd 9902 69bb
00000340: 999e 93bc 7c6a a43c d31a 4ebb bece 3abc
00000350: 90ea 44bd d462 4c3d ccfa b93c d0cc 60bc
00000360: 1df4 78bc 2581 fd3c 740d 053d d4b5 fc3b
00000370: cd28 953c 08c4 0d3c 26dc 4b3d 09af 3f3d
00000380: f12b 91bc 20be 1dbc fab1 cd3c 1dff debc
00000390: f315 ee3c 47ae 183b bdb2 5d3c 1ca7 623c
000003a0: 2021 3e3b 9f6f 6c3c bc07 c1bb a231 96bc
000003b0: 2de2 78bd a4c3 963b 8147 15bc e757 bcbc
000003c0: f826 a03b 1151 4abc ea67 99bc 97a1 c4bc
000003d0: 6e01 24bd ee49 9bbc 05cb fe3c a847 59bc
000003e0: 6d7d 22bd cc47 d73b e798 6c3d 6f72 c2bc
000003f0: cf56 b73b 5fb1 e03b 4ef9 2cbc beb9 35bb
-0.008515 0.046754956 0.030549405 0.010477778 -0.004438437 0.015231974 0.008550242 0.02108456
-0.029048752 0.027269984 0.0210485 0.06691599 -0.008655505 -0.012126832 0.033063456 0.055000737
-0.0018291636 -0.07079154 -0.050738316 -0.043240983 0.0054385643 -0.024543224 -0.04685224 -0.0065435315
0.022522464 0.004351 0.021061186 0.036576793 0.005914683 0.045163415 0.03509311 0.017383378
-0.01078563 0.046873517 0.016139388 0.005130776 0.0022829575 -0.018871425 -0.022184856 0.035354506
0.046500154 0.04231134 0.018463226 0.037402358 0.061595783 0.00047309877 -0.0007848 0.048461594
-0.020451132 -0.013982803 0.0031380977 0.0003844232 -0.031229991 0.00027393718 -0.00729763 -0.045067564
-0.002344987 -0.0067560035 -0.024720753 -0.0450551 -0.026474802 -0.050737772 -0.05803505 -0.08576894
0.033398557 -0.03171289 0.036315702 0.005625969 0.03249994 0.02952694 0.019631023 0.01627087
0.009164795 0.008329486 0.04238839 -0.016506957 0.011976757 -0.02047123 -0.009424847 0.020317659
-0.03172442 -0.023257876 -0.037422556 -0.060334805 -0.009757736 0.017869048 0.011163938 -0.011853491
-0.0029745346 0.027719915 0.03181602 -0.027639847 0.012687496 0.023075147 0.031333305 0.030998914
-0.004058774 0.012927246 0.005475017 0.007121156 -0.039006695 0.002446526 -0.011680113 -0.023411354
-0.013908816 -0.04969371 -0.07156333 -0.061275795 -0.0039949887 -0.0143863745 -0.069005735 -0.028658232
-0.010304886 0.023933336 -0.020391183 0.015273813 -0.002103283 -0.080836914 -0.07636737 -0.042685818
0.026024034 -0.014677823 -0.07413254 -0.012126582 0.0031414696 0.0010999251 -0.005852602 0.009996907
-0.020565454 -0.01709166 -0.037990455 -0.036122203 0.009425775 -0.045273557 0.023795068 -0.0037683337
0.016040757 0.0204472 0.011399488 -0.007902907 0.019405058 0.021980617 0.0069030174 -0.029281443
-0.046858232 -0.039448015 -0.010373735 -0.017201208 -0.012564011 0.022144547 0.02174135 -0.01259657
0.0071174297 0.027917964 0.07595474 0.02138648 -0.014288343 0.0075485935 0.012661556 0.02739113
-0.000141776 0.0042672907 0.018210832 -0.017437799 -0.01358255 0.0028223551 0.016965576 -0.02818163
-0.02337409 0.04686611 0.101806596 0.041538183 -0.0023400339 0.061163623 0.093410805 0.050836228
0.0151994275 0.011059909 -0.006354104 0.02607296 -0.019769056 -0.005822578 -0.007160881 0.027144646
-0.087389916 -0.08278354 -0.02207754 0.050937798 -0.06744536 0.019918403 -0.012323871 0.020896114
0.0076419106 0.006706002 0.0019041516 0.032297008 -0.03231653 -0.055894867 -0.0755975 -0.043552257
-0.035001278 -0.027211271 -0.023579732 -0.035989266 -0.08270559 -0.073775575 -0.03359424 -0.0035554527
-0.018019961 0.020070307 -0.0031449094 -0.01140183 -0.04807526 0.049898937 0.022702597 -0.013720706
-0.01519492 0.03094537 0.032483533 0.0077121053 0.018207932 0.0086526945 0.049770497 0.046797786
-0.017721148 -0.009627849 0.02510928 -0.027221257 0.0290632 0.0023297237 0.013531384 0.013833787
0.0029011443 0.014430909 -0.0058908146 -0.018334214 -0.060762573 0.004600959 -0.009111286 -0.022991134
0.004887458 -0.012348429 -0.018726308 -0.024002833 -0.040040426 -0.01895615 0.031102667 -0.013261713
-0.039670397 0.006569838 0.057763007 -0.023736207 0.005595065 0.006857082 -0.010557486 -0.002772912

network.10.bias f4 [2]
00000000: 2fb5 363d 3dca 02bd
0.044606384 -0.03193115
