static/cifar10_model.pth (torch, 282294 bytes, 20 tensors)

network.0.weight f4 [32, 3, 5, 5]
00000000: d332 15bd 74ad bcbd c773 ae3c 6ac7 ed3c
00000010: 00ca 62bd cfe5 39bd 1985 c23d 40bc 923d
00000020: 2891 18bd 3cbf 9c3d 223c 823d 0d27 063e
00000030: 6cfb 6d3d e12f 933d e5c1 42bb e022 343e
00000040: 6c83 fe3d 6d1a 1a3e f18a 36bc d110 003d
00000050: db5d 333e b6b4 d03d e3e7 d13d 57f4 203e
00000060: cac4 f03d b2e5 713d ead1 51bd 83ea b5bd
00000070: 89ad bc3d 445a 69bd 012f bdbd e6bf 353d
00000080: 84a2 bbbd 3c7c d93d 2224 dabc 9398 debc
00000090: d352 91bd d6ea 7b3d 4cc8 92bd b70c 31bd
000000a0: 3ae3 cd3d 0e15 883d 2b91 10bd 1199 94bd
000000b0: 65b8 db3c 734d 46bd 8acd 7ebd c089 69bd
000000c0: 2e27 2abc 4c41 9bbb c539 c0bd 1540 ec3c
000000d0: b5ef 2c3d 51b8 b03d 3aad febd 6e8d fcbb
000000e0: 5bbb 9fbc f19e 11ba dd3a 1ebd 2867 47bd
000000f0: ba37 64bc e166 0ebc 309f af3c 7f4b 0abe
00000100: 60ac 7fbd 7e28 cebd 112c 67bd df88 893d
00000110: 2b36 bdbd 9e69 6cbd fa42 0dbd 3559 9c3c
00000120: 958d 833d 0c68 4dbd 1e28 803c 35d6 b5bc
00000130: 28cf 053d f90f 82bc 4c4a ef3c 070c 83bc
00000140: 0934 423d 5cc3 a7bd fbed 713d 36b7 3ebd
00000150: dc1e d0bd f3e6 0e3d 2b09 0dbd a3ce 313e
00000160: f211 243d 9dfc 34bd 8719 1fbd 6912 09be
00000170: 6321 da3c 11b7 243e f8b8 48bd 36f0 6abc
00000180: 5f67 853d 944f babd 5c50 1b3d 77ae adbd
00000190: 83ed 7bbd 4050 0f3b 870b cf3d 4a02 8b3d
000001a0: 32b1 8abd b5af 10bd 2718 a5bd 675c 043e
000001b0: c539 c53d 75d4 e6bc 5b1c b1bd 3425 06be
000001c0: c928 6bbb d939 8f3d ea5f 2bbe 9e64 363d
000001d0: 48ad 473d 9b89 0abd d3c5 e13d 6b65 e0bd
000001e0: 1b7b 63bd 62c0 4e3d e506 d83d a0d6 8c3d
000001f0: fd43 45bd c360 b63b 7108 9d3c 9fdb 9abd
00000200: 90a7 3abc da80 033c ef55 813b bf07 9ebd
00000210: 1a73 a33d e8e1 b73d 072a 9fbd 9872 d13c
00000220: 224b f3bd b729 e23d 5366 093e 404e 0abd
00000230: 889f bebd 25a7 553d 249c 023e 3e9a 56bd
00000240: b719 06be ca04 adbd e36d c1bc 90d6 593d
00000250: 073e 613d 67ee 54bc 290f 90bd f06b 28bc
00000260: 545a a53d 0838 503d 3ce7 0dbb 38f3 f73d
00000270: 297e 0abe 706c d3bd 903f 5c3d f521 b4bc
00000280: ac2c 4ebc f4e5 dd3d b16b 73bd a94f ecbd
00000290: ef8f 0b3d 25e0 033d ab19 f03d 126e bb3d
000002a0: b42e 31be 5a41 0bbd ee64 d2bd 70de fcbc
000002b0: 626f 773c e6b7 c23d ba42 823d 40dc 3ebc
000002c0: 6a36 83bd 7490 45bc 6d42 e03d 7f72 c3bd
000002d0: aef2 903c b3c1 99bc e5c1 8dbd a4c6 3b3d
000002e0: 5fb5 ff3d 40eb 433d b20f 1cbc 62e8 b7bd
000002f0: 8d05 17be 5f9d ad3d dc4c a5bd 6468 073e
00000300: 9ba4 b63d 418c ef3c a500 a2bd 65ea a5bb
00000310: ec9a 9a3b dfec b23c 80cd 163d 9b6d b3bd
00000320: 1b4f f73b 68c5 5ebd 2830 043d 9ac7 0d3c
00000330: eff6 623d 5941 61bd 5f9e c33b 1a9b d1bd
00000340: 5867 10bd 2649 093e a386 f33d 008f 3c3d
00000350: eee6 9bbd 510f e2bc dd94 ebbc 069a 00ba
00000360: d12a d63c eac4 67bc 9b65 343d 69e5 e8bd
00000370: 8d5e 79bc f70b 00bd 331e 943d de4c c0bc
00000380: 0c78 eb3c baea 2fbd 29f6 4bbd e30b 9ebd
00000390: a917 033d 68f5 ac3d 04b4 713d e785 743d
000003a0: dc50 c63d e20d 573d 5a55 4a3c ce87 b2bc
000003b0: 6984 42bd dfcf e7bc d011 903c 55b3 31bd
000003c0: fe38 55bc d9fe 61bb 828e 133d e613 a1bb
000003d0: 8c8c 3dbd 4aba c1bc 6d3c 7cbd 3d68 493d
000003e0: 8612 a23d 7173 f43d 022f 43bd dd4a aa3d
000003f0: 6a14 8ebd 0c82 55bd 0daf 1f3e b3ba cf3d
-0.036425423 -0.09212771 0.021295441 0.029025752 -0.055368423 -0.04538518 0.094980426 0.07164812
-0.037247807 0.076536626 0.06359126 0.13100834 0.058101103 0.071868666 -0.002971762 0.17591429
0.124274105 0.15049143 -0.011141525 0.031266037 0.17516272 0.10190718 0.10249307 0.15718208
0.117562845 0.059056945 -0.05122558 -0.0888262 0.09212787 -0.05697085 -0.09237481 0.04437246
-0.09161857 0.10619399 -0.026628558 -0.027172362 -0.070958756 0.061503254 -0.0716711 -0.043225016
0.10053106 0.06644641 -0.035294693 -0.072557576 0.026821325 -0.048413705 -0.062207736 -0.057016134
-0.010385318 -0.0047380086 -0.09386019 0.02883915 0.04222079 0.086289056 -0.12435384 -0.0077072894
-0.019498518 -0.0005554995 -0.038630355 -0.04868236 -0.013929302 -0.00869152 0.021438211 -0.13505362
-0.06242025 -0.10066317 -0.05643851 0.06715559 -0.09238847 -0.057717912 -0.034487702 0.019085506
0.06423489 -0.050148055 0.01564413 -0.022196868 0.032668263 -0.015876757 0.029210232 -0.015996946
0.047412906 -0.08191559 0.059064846 -0.046561442 -0.10162136 0.03488822 -0.03443257 0.17363982
0.040056176 -0.044186223 -0.038842704 -0.13385929 0.026627248 0.1608546 -0.049004525 -0.014339497
0.06513857 -0.090972096 0.037918434 -0.08480542 -0.061505806 0.00218679 0.101096205 0.06787546
-0.067720786 -0.035323817 -0.08061247 0.12925874 0.09630159 -0.02817748 -0.086479865 -0.1310013
-0.0035882464 0.069934554 -0.16735807 0.04452955 0.04874924 -0.033822637 0.1102406 -0.10956844
-0.055537324 0.05047644 0.1054819 0.06876874 -0.04816054 0.005565734 0.019169064 -0.07561421
-0.011392489 0.008026326 0.0039470117 -0.07716321 0.07980938 0.08978635 -0.07771688 0.025567338
-0.11879565 0.11043113 0.1341794 -0.03376603 -0.09307772 0.052161355 0.12754875 -0.05239319
-0.13095747 -0.08448179 -0.023611968 0.05318314 0.054990795 -0.012996293 -0.070341416 -0.010279641
0.08073869 0.050834686 -0.002165272 0.12106937 -0.13524689 -0.10323417 0.053771555 -0.021988848
-0.012583893 0.10834876 -0.059428874 -0.115386315 0.034072813 0.032196183 0.11723646 0.091518536
-0.17302972 -0.03399787 -0.10273157 -0.030867785 0.015102239 0.09507732 0.06360383 -0.011649191
-0.06406863 -0.012058366 0.1095017 -0.09543323 0.017693844 -0.01876912 -0.06921748 0.045843735
0.12485766 0.047831774 -0.009525226 -0.089798704 -0.14748211 0.08477282 -0.080713004 0.13223416
0.08918115 0.029241683 -0.07910279 -0.0050633424 0.004718175 0.021841465 0.036817074 -0.0876114
0.007547272 -0.05438748 0.032272488 0.008653546 0.055411275 -0.05499396 0.005969807 -0.102346614
-0.035254806 0.1340681 0.11890914 0.046034813 -0.07612406 -0.027595194 -0.028757507 -0.0004905764
0.026143463 -0.014146069 0.04404221 -0.113718815 -0.015220297 -0.03126141 0.072323225 -0.023474153
0.028743766 -0.042948462 -0.049795303 -0.07717111 0.032004986 0.08445245 0.059009567 0.05969801
0.096833915 0.052503474 0.012349451 -0.021793272 -0.047489557 -0.028297363 0.017586619 -0.043383915
-0.013014076 -0.0034484176 0.036024578 -0.004915702 -0.046276614 -0.0236484 -0.061581064 0.049171675
0.07913689 0.11936081 -0.047652252 0.0831506 -0.069374874 -0.052125975 0.1559412 0.10143032

network.0.bias f4 [32]
00000000: e24f aabb 652b 463c 3bfc 2639 b0e3 9e3d
00000010: 7b00 923a c31a 3939 c867 2a3b b6cf 363c
00000020: 7c11 493c 3ae0 0c3d 2460 82bb 5f9d 7a3d
00000030: 74f2 7d3c 043d 0cbc d6ee 3b3e 1cec d83a
00000040: 77a1 e63c 2563 8fbb d2c7 c2bb bcc3 8dbd
00000050: ef3e c13d f323 c6bd ca4a 21ba 7a9c 84bd
00000060: 2ec6 17be cd1a bc3d 736c 73bb 008c 293d
00000070: bd07 72bb 8274 8ebd 853b fbba 4b4d 0a3e
-0.005197511 0.012095307 0.00015924957 0.07758272 0.0011139059 0.00017652944 0.00260018 0.011157921
0.012272235 0.034393527 -0.003978746 0.061185237 0.0154997 -0.008559469 0.18352827 0.0016549858
0.028153164 -0.0043758326 -0.0059442306 -0.06922099 0.09435832 -0.096748255 -0.0006152807 -0.06475158
-0.14821693 0.09184799 -0.0037143498 0.04139328 -0.0036930882 -0.06955816 -0.0019167518 0.13506047

network.2.weight f4 [32]
00000000: 0a54 6c3f 6f83 8a3f 834a 9c3f afda 693f
00000010: e379 683f cf74 813f f13e 823f 1b9a 693f
00000020: 5251 613f 25b8 6d3f a0d0 833f 76c5 4c3f
00000030: 53db 7e3f c18a 683f f638 683f d17d 993f
00000040: 4355 7e3f 5997 8d3f 9fe5 7d3f 2a3c 5e3f
00000050: 3370 733f 3b92 583f bb8c 943f 2262 6b3f
00000060: ee05 4b3f 5be4 763f a476 803f dc65 683f
00000070: e8c5 793f 4482 683f 7e35 883f a22d 573f
0.92315733 1.082136 1.2210239 0.9134931 0.90810984 1.0113772 1.0175458 0.9125077
0.8801471 0.9285911 1.0298042 0.799888 0.9955341 0.9083672 0.90711915 1.1991521
0.9934885 1.1061813 0.991785 0.86810553 0.9509308 0.8459813 1.1605448 0.91946614
0.79305923 0.9644219 1.0036206 0.90780425 0.97567606 0.9082377 1.0641325 0.84054005

network.2.bias f4 [32]
00000000: b234 7e3d 280a b93d ff28 ba3d e72e cebc
00000010: fd00 243d c181 583d a7c3 083e 7d2b f63c
00000020: 2207 523d 8286 033d 4498 dc3d 736e f23d
00000030: 75e4 8b3b cc0e 7a3d f633 163d 6d47 4d3d
00000040: 3eba 6a3d 9c4a 1eba 0207 a83d 3321 093d
00000050: 53fc 8dbc e545 1a3e d80a 1d3e eeab cfbd
00000060: acef 9cbe 646e a73d 2f57 a83d 92c9 9cbb
00000070: 11cf e03d 4b8b 2e3d 58bf f13d 3d48 803d
0.062061973 0.0903514 0.09089851 -0.02516885 0.040040005 0.052858118 0.13355885 0.030050034
0.051276334 0.0321107 0.1077123 0.11837473 0.0042691776 0.061049268 0.036670648 0.050116945
0.05730652 -0.00060383393 0.08204462 0.033478927 -0.017332232 0.15065725 0.15336168 -0.10140215
-0.30651605 0.08175352 0.08219754 -0.0047847712 0.10976995 0.04261331 0.11804074 0.06263778

network.2.running_mean f4 [32]
00000000: 12dc 883e ea10 0c3d 0b0e a43c 4f11 233f
00000010: cdf1 263d eb47 1b3c 0e85 433d fceb c03d
00000020: 26d0 393d 5499 0a3e fe6d db3d 4738 ec3c
00000030: 2985 9b3d 2cab a93d f17f ff3e 19e8 9e3c
00000040: a0ee 993d 7c5a 973a d1e4 c53c 2188 f93d
00000050: ceb4 193e 064b 8d39 1304 0d3d 6614 f839
00000060: 0400 0000 23df 133e 2787 b23d 9f4e e13d
00000070: 6b62 ca3c e450 ed3d 337e 4b3a 8eed 173c
0.267304 0.034195818 0.020026227 0.63698286 0.040757943 0.009477596 0.047734313 0.094200104
0.04536452 0.13535053 0.10714339 0.028835429 0.07593758 0.082846016 0.499023 0.019397782
0.07516217 0.0011547352 0.02415696 0.12184168 0.15010378 0.00026949513 0.034427714 0.00047317444
6e-45 0.14440589 0.087171845 0.11001324 0.024705132 0.11587694 0.00077626406 0.009272946

network.2.running_var f4 [32]
00000000: d3e3 313d 1dd0 cf3b ba8f e33a 6ceb d03d
00000010: 5595 073c c1e9 733a b182 483c 467c 653c
00000020: d381 8e3b cda0 1e3c 7bc0 023d 0dfe 733b
00000030: 0dc0 cc3c dee8 4a3c 85bc 8d3d 748b db3a
00000040: ba83 ab3b 75c2 d238 2f0a 133b c801 c73c
00000050: 00b8 773c c09a eb37 b4fe d13b d428 6838
00000060: 0400 0000 a270 9d3c e958 d13c bd39 f33b
00000070: 245a 4a3b f1db ab3c ae38 9c38 059b 703a
0.04343016 0.0063419477 0.001736156 0.10201153 0.00827535 0.00093045464 0.0122381905 0.01400668
0.0043489723 0.009681893 0.031921845 0.0037230283 0.02499392 0.012384621 0.06920723 0.0016749934
0.005234209 0.00010049801 0.002243649 0.024292842 0.015119553 2.8086244e-05 0.006408537 5.5351135e-05
6e-45 0.019218747 0.025555091 0.0074226544 0.0030876482 0.0209789 7.449217e-05 0.0009178373

network.3.weight f4 [64, 32, 3, 3]
00000000: 6124 c9bb 3489 04bc c50c 733b 8e72 333d
00000010: 5906 2d3d 85c9 20bc 2709 3cbd 9f99 0fbd
00000020: 9b93 1abc aa7e 723c c8e9 1c3d 5878 17bd
00000030: 69ad f43c 9b0d 133d 6a26 80bc a73b 403b
00000040: 6063 593c 416c 873b 075b dc3b 943b 543d
00000050: fb83 d43c 49e4 d03c 0cb4 af3d f611 a23d
00000060: 20e4 11bd 293b 0a3d c6d0 683c 0592 243d
00000070: 0d8f 28bd 8313 17bc 7a85 81bd 4b1f 713c
00000080: 24cf 543c 3815 d5bd ebff 7fbd db97 4ebd
00000090: 9659 aabc 3bef a2bd 546b ffbc a21e 6bbd
000000a0: d5e9 c8bd 46c1 32bd 9b2b f5bc f7fc fbbb
000000b0: 004b f9bc e49c 61bd 8052 b1bd 312e cebc
000000c0: 6d0f c9bd 3b53 06be 6f9a dabd e423 38bd
000000d0: 2114 3ebb 39cb 603c 28cf 88ba 8fcb 85bb
000000e0: 917c 3a3c e403 7ebc 24e1 32bd 85a9 4dbc
000000f0: 867d b6bb aaa5 04bd d6a9 74bd d036 ae3c
00000100: 3237 12bc 22a9 b73c 9232 a0bc e848 663d
00000110: 3054 893c 42dc 5a3d f169 823d 2fea 5b3c
00000120: dd3d 4ebd 001f 363c ce19 f13c b706 b4bd
00000130: aef2 72bd af82 29bd fbc0 bbbd cf64 4fbd
00000140: 8c7b 15bc a033 59bc cd6d 90bd 40d2 323d
00000150: 2625 2dbd f533 e0bc d1ab c53c b7ee 8bbd
00000160: 3195 adbd 8ea4 eb3b e63b 9c3c 140a af3c
00000170: 014d 623b dfe0 5f3c be9b 2c3d 07d6 cd3b
00000180: 1ce6 493d a5eb 073d 7e9d 803d a646 473d
00000190: 6486 06bc 0229 b23c f270 783a 92d5 543c
000001a0: 7752 e23c 4472 2b3c fba3 783d 0370 9e3c
000001b0: 21b1 d3bc 0a9c 82bd 9a57 8bbd be91 23bd
000001c0: 3410 f6bc c915 cbbd df4b d13d 6e4d c7bc
000001d0: 7bf4 f439 6b8d 023d e123 47bc 7795 743d
000001e0: a360 7ebd f6cb bebd da17 b93a 424a 18bd
000001f0: 64b1 3b3c 7b73 863d 225b fd3c 81e6 613c
00000200: 3da4 753c 0e38 e83c 7e65 3b3d 1b88 a03c
00000210: e799 56ba e8d8 8b3c 17d9 6e3c f32b 31bc
00000220: 50f9 4abc b753 0cbc 90ab d13c 638e 8c3c
00000230: a68e 493d a7ac 333b 7166 6f3c cefe eb3c
00000240: 90ca 0f3c 523f 7dbd c8c0 88bb b8a7 e8bd
00000250: 1e92 22be 6a92 abbd ed1a 84bd 881e ffbd
00000260: 0632 c4bd 9864 0d3c 8def 5b3d 470d c23b
00000270: 628b cb3d 59cb 9f39 fba4 8d3d 9ee4 2abd
00000280: f704 833d bbac 8bbd 797a e4bc 1f4d 00bc
00000290: f982 253d bd88 4bbd 75f2 a6bc bfc1 71bc
000002a0: cc9b 9539 5f82 433c 5b92 aabc b022 44bd
000002b0: 9241 3c3c 351f 6b3d e99f e2bc 4e98 81bd
000002c0: 2038 08bd a3ca e33b 9d13 52bb 913d 36bd
000002d0: 8ce6 01bc 48e6 9ebc cbd8 123c c405 d1bc
000002e0: 5580 ce3d 4c9e 4a3d 2567 2b3c 6979 973d
000002f0: 6a28 8a3c 6577 0bbd de66 d23c b7be 2cbd
00000300: bd61 893d d3f7 133c e0e6 923d 19cb 44bd
00000310: 4241 253b cbb2 7dbc 69bf 0bbd ca0f b5bc
00000320: 6a0e b33c 3c53 e3bc 326d 5d3d e5e1 b93c
00000330: bbdc 103d e9e8 fc3c 0c30 18bd e524 d8bd
00000340: acf1 8cbd d232 87bb c1cb 6fbd 3354 8bbd
00000350: 9be6 81bc 1886 c3bc 3b86 ef3c bd8c 953d
00000360: 6565 d73c 77cf ec3b e19b f03c 0828 9ebd
00000370: ed75 c7bd 6182 353d 1a4b 233d dd9e 1a3d
00000380: 3a0a ac3c 5080 823c b06b e73b 3cd7 e3bc
00000390: abf6 ab3d 7f5a a0bb ac88 073d 2201 953d
000003a0: 3347 523c df6d ff3b 4aca aabc 3e07 9bba
000003b0: 93ea 25bc 8056 503d d101 c33b 85a3 64bd
000003c0: bf2f 723d 300c 993c bd16 81bc 3c55 6c3c
000003d0: de4d c7ba cb38 4cbd df04 cfbc b30e 843d
000003e0: fc62 553d 9be4 f33c 1a9c 57bc e912 86bc
000003f0: 6d99 0b3d 61ff 143d 3bc0 c3bc bb4f f3bc
-0.00613837 -0.008089352 0.0037086469 0.04381042 0.04224238 -0.009813671 -0.045907166 -0.035058614
-0.009434606 0.014800707 0.03830889 -0.036980003 0.029867845 0.035901647 -0.015643317 0.002933243
0.013268322 0.004132778 0.0067247185 0.05181463 0.02594184 0.02549948 0.08579263 0.07913582
-0.035617948 0.033747826 0.014209932 0.040178318 -0.04115205 -0.009220961 -0.06324287 0.0147169335
0.012988839 -0.10404438 -0.06249992 -0.05043779 -0.020794671 -0.07955786 -0.031179108 -0.05740226
-0.09810225 -0.04364135 -0.02992802 -0.007690068 -0.03043127 -0.055081263 -0.08658314 -0.02516851
-0.09817395 -0.13117687 -0.10673987 -0.044956103 -0.0029003697 0.013720327 -0.0010437714 -0.004083104
0.011382238 -0.015503857 -0.043671742 -0.012552624 -0.005569163 -0.032384552 -0.05973228 0.021266371
-0.008924292 0.022419516 -0.019555364 0.056221873 0.016763777 0.05343271 0.06367863 0.013422533
-0.050351966 0.011115789 0.02943125 -0.08790343 -0.05931347 -0.041384395 -0.091676675 -0.050633248
-0.009123694 -0.013256937 -0.07052193 0.04365754 -0.042271756 -0.027368525 0.02412978 -0.068326406
-0.08475722 0.0071912473 0.01907153 0.02136711 0.0034530761 0.013664453 0.042140715 0.0062816176
0.049291715 0.033183713 0.06280039 0.04865136 -0.008210752 0.02174807 0.00094772794 0.012990372
0.027627213 0.010464255 0.06070326 0.01934052 -0.025841298 -0.06377418 -0.06803818 -0.039933912
-0.030037023 -0.099162646 0.102195494 -0.024328914 0.0004672146 0.031873148 -0.01215455 0.059712853
-0.06210388 -0.09316246 0.0014121488 -0.037180193 0.011455867 0.06564995 0.030927245 0.013787867
0.014992771 0.028347041 0.045751087 0.01959615 -0.00081863854 0.017071202 0.014578125 -0.010813701
-0.012388542 -0.008564881 0.025594503 0.017157739 0.049208306 0.0027416141 0.014611826 0.028808024
0.008776322 -0.061827965 -0.004173372 -0.11360115 -0.15876052 -0.08377536 -0.06450448 -0.12456995
-0.09579854 0.00862994 0.05369525 0.005921993 0.099386945 0.0003047835 0.06916233 -0.041721933
0.06397431 -0.06820055 -0.02789043 -0.007830887 0.04040811 -0.04969095 -0.020379284 -0.014755665
0.00028535572 0.011932938 -0.02082174 -0.047884643 0.011490243 0.05740281 -0.027664142 -0.06327878
-0.03325665 0.0069516464 -0.0032055147 -0.044492308 -0.007928502 -0.019396916 0.00896282 -0.025515445
0.10083071 0.04946737 0.010461603 0.07396204 0.016864974 -0.03404941 0.025683817 -0.042174067
0.06708095 0.009031254 0.07172942 -0.04804525 0.0025215899 -0.015484522 -0.03411809 -0.022102255
0.02185746 -0.02774965 0.054059215 0.022690723 0.035366755 0.030872779 -0.037155196 -0.10553912
-0.06882033 -0.0041259313 -0.058543924 -0.06803169 -0.015857032 -0.023867652 0.02923881 0.07302234
0.026293466 0.00722688 0.029371204 -0.07722479 -0.097392894 0.044313792 0.039866544 0.03774916
0.02100097 0.015930325 0.007062398 -0.027812593 0.083966576 -0.0048936005 0.033089325 0.07275607
0.012834358 0.00779508 -0.020848412 -0.001182772 -0.010126728 0.050863743 0.0059511443 -0.055820007
0.059127565 0.01868257 -0.015757913 0.014424618 -0.0015205701 -0.04985885 -0.025270877 0.06448116
0.052096352 0.029772094 -0.013159776 -0.016366439 0.034081865 0.03637636 -0.023895374 -0.029701104

network.3.bias f4 [64]
00000000: 1405 953d d017 00be 30ff c6bd d2c1 39bd
00000010: 8934 29bd 7766 25be 8079 2fbd 8138 e4bd
00000020: 28e8 203c ec21 92bd 1302 b73b a4b4 60bb
00000030: 57ac 03bd 175f 09be a178 5dbd 5ee8 a2bd
00000040: fb6c 99bd bbfa 033d a1d1 bebd cac8 823c
00000050: d8d4 c5bc c69f abbd 4aec a5bd 3cfe fcbd
00000060: a039 d1bd 8074 35bc 3263 76bd 383e 803c
00000070: af92 56bc 3e22 c1bd e83c 35be 1528 59bd
00000080: 28e3 9abd d362 30bd 778b a5bd c51f 89bd
00000090: 9a80 55bd ed00 813d 7fb0 31bd 3cc7 19bd
000000a0: fe93 babd 7fab 1fbd 6cf2 ce3c f37b 53bd
000000b0: 1196 acbd 16ea c8bd cfc5 273d 3b4f a3bc
000000c0: 24ad 0ebd 9a3b 63bd fa4d aabd 4ee0 82bd
000000d0: e5cd b2bd ec05 bebd 6fe2 16bd 3f8e 10bd
000000e0: 332b 103c 9db0 22bb 35a9 51bd 5146 4c3d
000000f0: 926a e1bd e4fa c03c 344e f1bc 48a1 e2bd
0.07276359 -0.12509084 -0.09716642 -0.045350857 -0.041309867 -0.16152368 -0.04284048 -0.1114359
0.009820975 -0.07135376 0.005584964 -0.0034287358 -0.032146778 -0.1341518 -0.05407012 -0.07954477
-0.074914895 0.032221537 -0.09317327 0.015964884 -0.024149343 -0.08380084 -0.08101709 -0.12353179
-0.10216069 -0.011075139 -0.060153194 0.015654668 -0.0130964955 -0.09430359 -0.17699015 -0.05301674
-0.07562858 -0.043062996 -0.080832414 -0.06695513 -0.052124597 0.06299005 -0.04338121 -0.03754352
-0.091102585 -0.03898191 0.02526208 -0.05163188 -0.084270604 -0.09810273 0.04096013 -0.019935241
-0.03483309 -0.055476762 -0.08315654 -0.06390439 -0.087306775 -0.09278473 -0.036837038 -0.035291906
0.008799362 -0.0024824508 -0.05118676 0.049871746 -0.11006655 0.023557134 -0.029456235 -0.11065918

network.5.weight f4 [64]
00000000: f1e3 723f bce9 863f 97ca 753f a4cd 713f
00000010: 36f8 803f 4295 6b3f 838a 8f3f 89d1 6d3f
00000020: febb 5f3f 552b 813f 1345 7f3f 081a 803f
00000030: a067 783f e967 713f 665b 863f d0da 7f3f
00000040: 1300 703f 9958 803f 5b1e 763f 7112 653f
00000050: 2051 733f 9762 7d3f 22f7 8c3f 7625 7a3f
00000060: 8b21 883f 2fcb 813f 1fed 803f eb62 793f
00000070: 08d5 833f 5638 833f ff10 993f ac32 643f
00000080: 14ae 813f 435e 6f3f 7169 7f3f fd2b 853f
00000090: d0d1 763f ce48 643f d8bd 7b3f 9bf2 683f
000000a0: 82ea 7a3f a29a 7f3f cdd3 563f 2610 7a3f
000000b0: 8281 6e3f 40cc 743f b3f1 6e3f b299 7c3f
000000c0: 47be 7e3f 4473 753f 50b7 7e3f c1c8 823f
000000d0: 24b4 793f 732b 813f 6dd2 7a3f e9c5 8a3f
000000e0: 641b 6e3f 1617 783f 24a7 853f d691 823f
000000f0: f36f 703f 6271 7f3f aec3 673f 251d 8a3f
0.9487906 1.054008 0.9601225 0.9445441 1.0075748 0.92024624 1.1214145 0.9289785
0.8739623 1.0091349 0.99714774 1.0007944 0.9703312 0.9429918 1.0496643 0.99943256
0.93750113 1.0027038 0.9614007 0.89481264 0.9504566 0.9897856 1.1012919 0.9771341
1.0635237 1.0140132 1.0072364 0.9741656 1.0299387 1.0251567 1.1958312 0.8913982
1.013125 0.93503207 0.99770266 1.0404049 0.964139 0.8917359 0.98336554 0.90995187
0.9801408 0.99845326 0.8391693 0.9768089 0.93166363 0.9562416 0.93337554 0.9867202
0.9950909 0.95879006 0.9949846 1.0217515 0.975405 1.0091385 0.97977334 1.0841647
0.93010545 0.96910226 1.0441632 1.0200756 0.9392082 0.99782383 0.9053296 1.0790144

network.5.bias f4 [64]
00000000: 84b3 143e 77f5 ea3d f2c1 b73d c430 163e
00000010: 9992 d13d a462 2dbd dbb4 e43d a926 823d
00000020: c021 e63d ac4b 0e3e 6a09 4e3e 30d7 1d3e
00000030: 7835 9a3d 9acc a33d f751 a83d e279 643d
00000040: 0dfe 4d3e f66a c9bd ab6c 673e 1f5e 933d
00000050: 8754 2b3e 26cf c83d cd67 6d3d e92a 053c
00000060: 04f6 c6bc 0afe 3c3e 6721 813d 0c45 863d
00000070: f299 c93d 2027 843d 1321 503c 8be4 773d
00000080: c3ff 7e3d 6703 9a3d 38e8 2b3e 9df5 053e
00000090: 7c34 2f3e 9420 7b3e 6114 ab3c afff 253e
000000a0: 6576 6b3d 304f d8bd 4839 7a3d 4edc 8e3d
000000b0: 7ca9 3b3e 8468 ad3d 5fd2 133e 09db 1d3e
000000c0: 43dd 033e 8b63 7e3d fd7f 45bd acf9 54bc
000000d0: 9a95 e03d 578c d63d d44d 0a3e c546 333e
000000e0: 6127 d73d 98ef 533e 6996 1a3e 5e30 c43c
000000f0: c3ec 8d3e 0c4c e53d 250a 683e 01ba 563d
0.14521605 0.114726 0.08972539 0.1466704 0.102330394 -0.0423304 0.11167308 0.0635503
0.11236906 0.13896054 0.20120779 0.15414119 0.075297296 0.07998009 0.082187586 0.0557803
0.20116444 -0.09834854 0.22600047 0.071956865 0.16731463 0.098051354 0.05796032 0.008127906
-0.024287231 0.18456283 0.06305199 0.065561384 0.09843816 0.06452775 0.012703198 0.06052069
0.062255632 0.0752018 0.16787803 0.13081975 0.17109865 0.24524146 0.02088374 0.16210817
0.057485957 -0.10561979 0.061089784 0.069756135 0.18326372 0.084672004 0.14435719 0.15415587
0.12877373 0.06210665 -0.048217762 -0.01299898 0.10966034 0.104759865 0.13506252 0.17507465
0.10505558 0.20696867 0.1509644 0.023948845 0.27719697 0.111961454 0.2266012 0.05242348

network.5.running_mean f4 [64]
00000000: 0ef7 da3e cb3a bc3e 3ced 1a3e 6492 5c3e
00000010: 390d 983e 15b1 773e 7f4e 993e 6707 b83d
00000020: 2c7e 5b3e 3fab 003f c13e eb3e e3a8 5c3e
00000030: 5e90 f63d 239f ed3d 8ac4 393e bbfe a63d
00000040: feff 4f3e 1550 9a3e 5fcf 5c3e d0b9 893e
00000050: 016c a83e 7d42 3c3e 1e7e 793e 03f5 263e
00000060: ff60 223e a798 b03e 21fc 203e 29f5 b93e
00000070: ecfa 523e 90c7 503e 597b 0b3e cc02 a13e
00000080: c1d3 543e 7afc 403e 462e f63d 9611 113e
00000090: 1e2b b33e f268 143f 1a86 253e 1ab6 653e
000000a0: 6097 383e db45 723e 2e9e 9e3e 1716 5d3e
000000b0: f4af 843e 1b37 2e3e bab8 ef3e 1d53 043e
000000c0: 1297 933e 98ed be3e 5f37 4d3d 1afd 6b3e
000000d0: 8f47 303e 012b 603e a934 8d3e 384d 893e
000000e0: 70a1 b93e 622d 9e3e b989 593e f138 bd3e
000000f0: 64b5 493e 93af f73e 4a40 b83e b1f6 e23d
0.42766613 0.36763605 0.1512956 0.21540219 0.29697588 0.24188645 0.299427 0.08985787
0.2143485 0.502613 0.45946315 0.215488 0.120392546 0.116026185 0.1814138 0.08154055
0.20312497 0.30139223 0.21563481 0.26899576 0.328949 0.18384738 0.24364516 0.16304402
0.15857314 0.34491464 0.1572118 0.36319855 0.20603532 0.20388627 0.13621272 0.31447446
0.20783903 0.18846312 0.12020545 0.14166865 0.34993833 0.57972634 0.16164437 0.22432747
0.18026495 0.2365946 0.30980057 0.21590458 0.25915492 0.17013209 0.46820623 0.1292233
0.28826195 0.37290645 0.050101634 0.2304577 0.17214797 0.21891405 0.2757924 0.26816726
0.3625598 0.30894 0.21243943 0.36957505 0.19698101 0.4837614 0.3598655 0.11082209

network.5.running_var f4 [64]
00000000: 2e0e 953e 6491 9d3e 3117 b83d 001a 273e
00000010: 1a79 b03e 5237 243e 0b64 4d3e 9f27 963d
00000020: fb01 363e 69ab 0e3f e777 cd3e 8d46 203e
00000030: 1ab7 b43d 1c79 b93d 6c6c b43d 0801 693d
00000040: 6c1a 323e 720c 213e 6d97 1c3e 9a0e 483e
00000050: 02bc 8f3e 2e34 103e 347e 0f3e 367c ce3d
00000060: d9a7 fd3d b3b3 853e 78d1 b83d abe9 933e
00000070: 0469 033e 78cc 173e 4184 9c3d e7ec b13e
00000080: 469e da3d 6909 f03d 9518 c93d 482d 9b3d
00000090: 61ff 9b3e c41e 1f3f 8ca6 003e a984 2e3e
000000a0: 7b47 013e 6950 193e e066 853e b01d 1b3e
000000b0: 93eb 973e da0b cd3d 7a64 bc3e f039 b53d
000000c0: c498 6c3e b0db b73e 8d14 ea3c 6136 463e
000000d0: ce99 163e e06d 483e 7011 533e 4954 373e
000000e0: 76e3 953e d857 8e3e eb8d 393e c044 773e
000000f0: 9852 f93d 1251 a63e ba86 9d3e f041 be3d
0.2911238 0.30774987 0.089887984 0.16318512 0.34467393 0.16036728 0.20057695 0.07331776
0.17774193 0.557303 0.4013054 0.15651913 0.08823986 0.09056303 0.08809742 0.05688575
0.17392892 0.15727404 0.1529214 0.1953682 0.28073126 0.14082405 0.14012986 0.10082285
0.1238553 0.26113662 0.09024328 0.28889212 0.12833029 0.14824092 0.07642413 0.34751055
0.106747195 0.11720545 0.09819142 0.07576996 0.30468276 0.6215632 0.12563533 0.17042793
0.12624924 0.1497208 0.2605505 0.15148044 0.29671916 0.10012026 0.36795408 0.08848941
0.2310515 0.35909796 0.028574253 0.19356681 0.1470711 0.19573164 0.2061212 0.17903246
0.292751 0.27801394 0.18120544 0.2414732 0.12173957 0.32483727 0.3076685 0.0928992

network.6.weight f4 [64, 64, 3, 3]
00000000: 4811 8bbc 5fb8 cb3c 0823 883d 47a7 52bc
00000010: 469a 37bd a37d 95bc 8344 62bd 3a16 94bd
00000020: ad55 efba b6a6 88bc 2b8d ca3c ce01 ef3c
00000030: f13b 4bbd dd6a 5ebd 66a9 ff3c c5c6 c5bc
00000040: 2393 0dbd 4e5f 883b 3833 d83d ea00 983d
00000050: 3c57 803b 50f4 a53c d156 673d 69ca 923d
00000060: df49 963c a420 99bb baf9 b33d 54b5 9d3c
00000070: d460 9e3c 8824 013d 2f48 1cbd 2961 12bd
00000080: 5e5d b6bc 5d33 cdbc 80c6 17bc 6f37 bf3b
00000090: 084d 4dbc e911 5b3d 2308 b43d ecd2 a3bc
000000a0: bb3c cd3c 0c8c 7c3d 61ae 363b 01ad ac3c
000000b0: d24e bdbc 12ab c33c addd c53c 47b7 0a3b
000000c0: 3adc 4dbd 4160 3bbd fc56 49bc 0cd7 9b3c
000000d0: 9b46 b73b 7a74 d83c 7855 263c 6ed3 7fbc
000000e0: 1f37 a2bc ba00 0d3d a344 01bd 7dc4 1bbd
000000f0: ff03 ad3c e720 67bb 4675 72bd 72cc 0bbc
00000100: 60aa 1cbd 2fe0 32bc 63a3 593c 64ad 5bbb
00000110: 4d72 133b 0fd4 c83c 6ae0 b53b 8b8f 4b3c
00000120: a8b8 e93c 5d93 01bd 1c12 fcbc 07ff c3bb
00000130: 9c6c b13b cc0f 313c 6570 8f3c 6512 063d
00000140: 2d76 b7bb 856b 363c 54d8 c83c e2e2 883b
00000150: dc74 cc3c adae a83c 354f a53d 1643 9dbc
00000160: 1b05 033d cede 633d b5e0 9e3c cf58 aebd
00000170: 2862 c8bd 3afc 92bd b547 b0bd 1301 b8bd
00000180: ece8 e2bc a63e 3c3c d2fb 56bc 4e5e 81bd
00000190: e233 bfbd ca20 ddbd c3f4 8bbd 2553 52bd
000001a0: 6c85 64bd f8e7 0dbd e353 513c 5c40 5637
000001b0: 13f4 813c 9a7e 8b3c d77f e4bc 63c4 e73c
000001c0: af93 8c3b ff3a 04bd 8e5b 403d 8a49 7eba
000001d0: 9b06 a7bc c293 153d 2694 513c 4721 a5bb
000001e0: 9fa1 8dbb e25b 563d 9c5a 583d 101c d6bc
000001f0: 486c 233d 445b 673d 38c5 b9bd ac15 04be
00000200: f778 acbd b8a4 09bc f226 86bd d299 abbd
00000210: d16e 1d3d e042 993d 36bb 84bc 4fb1 113d
00000220: 4c09 273d 8437 f13c 5436 67bc 4d4f 8a3c
00000230: 3c16 2a3d 2cd6 553b 57e5 bc3a 978e 763d
00000240: 8142 9ebc 5987 8fbd c759 043c 8899 14bd
00000250: 3ba3 55bb 52d1 8cbc 571a 483a c848 9d3d
00000260: 00eb 523b 60c1 32bd 5dcb 97bd 6d95 8abd
00000270: 4347 dd3c be57 133c b972 e23c 252f 253d
00000280: 328f ae3d bc9b 473d f006 913c 65fa 8cbb
00000290: 7126 01bc e05e 613d 1990 f33c 0d8f d7bc
000002a0: 3643 b0bc 936c 01bd a8f1 0cbd 5d8f c9bc
000002b0: 3619 69bd cc0d 8dbd b6fc a03c f816 053d
000002c0: 6e33 b4bc 8c80 863d 6b9a 8a3d 4991 a8bb
000002d0: 86a5 d83d 9c0c 66bc d12b edbc 2ac4 5f3d
000002e0: 5ff7 47bd 752c 61bd 7b7f 82bc 585d 9dbc
000002f0: 75eb 4ebd af06 afbd 9bf9 83bd 9eb1 6bbd
00000300: 4c85 d0bc 6b88 81bc 8f60 2b3c 7bdf c5bc
00000310: 26d3 49bb 77ea d1bc 2dcb 37bc f011 9ebd
00000320: 66c1 72bd 0bd4 e23b bf3d 13bd 356c 3b3d
00000330: eb73 233d a57b a93c 7711 5f3d 83ec 29bd
00000340: c4a9 edbc 6d01 f93c 4d02 693d 4468 133d
00000350: b0c7 ab3a 6df0 973c e509 6d3d e4eb 353c
00000360: 52f2 dab9 a4fe 58bd be8e dfbc 77a8 903a
00000370: 4268 373d 41d9 04bd f946 433d f7f7 173d
00000380: 5b1f 3e3b 905c 8fbb b2aa e7bd 9838 99bd
00000390: 09a0 e6ba e580 3fbd 87d7 b7bd e37c b13a
000003a0: 1cee a8bc bc5e 22bd 5df2 23bc e868 26bc
000003b0: 8ccc 1ebb ab76 023d 5947 713c d4ac 3bbd
000003c0: 5070 183d ec11 e03b 85e1 403c d293 6d3d
000003d0: 19dd 113d 0d73 f7bc 8221 833b 49ef e93c
000003e0: 8c56 4ebc 8cd8 8fbc 4e24 883c e333 663c
000003f0: 5d91 a33b 91f0 b1bc d4d9 8bbd e82d dabc
-0.016976014 0.024868188 0.06647307 -0.012857265 -0.04482486 -0.018248385 -0.05524112 -0.07230802
-0.0018259786 -0.016681056 0.024725517 0.029175665 -0.04961771 -0.05430113 0.031208705 -0.024142632
-0.03456415 0.004161752 0.10556644 0.07422049 0.003916649 0.020258099 0.05647928 0.07167513
0.018345771 -0.0046730805 0.08787866 0.019251503 0.01933328 0.03152898 -0.038154777 -0.03573719
-0.022261318 -0.025048906 -0.009263635 0.0058354656 -0.012530573 0.053483877 0.087906145 -0.019998036
0.025053373 0.061656997 0.0027874934 0.021078588 -0.023108874 0.023885284 0.024153555 0.002116637
-0.050258853 -0.04574609 -0.012288805 0.01902344 0.0055931336 0.026422728 0.010152213 -0.015614374
-0.019801674 0.03442452 -0.031559598 -0.038029183 0.02112007 -0.0035267414 -0.059193872 -0.00853263
-0.03824842 -0.010917707 0.013283583 -0.0033520097 0.0022498548 0.02451518 0.005550434 0.01242436
0.028530434 -0.031634677 -0.030770354 -0.0059813294 0.0054145586 0.010806989 0.017509649 0.032732386
-0.0055988044 0.011134033 0.024517216 0.004177437 0.024958067 0.020591104 0.08071748 -0.019197028
0.03198729 0.055632405 0.019394258 -0.08513033 -0.09784347 -0.07177015 -0.08607427 -0.0898458
-0.027698956 0.011489546 -0.013121562 -0.06316815 -0.09336068 -0.1079727 -0.06833794 -0.051348824
-0.055791304 -0.03464505 0.012776348 1.2770379e-05 0.015863454 0.017028142 -0.02789299 0.028291887
0.004290066 -0.032282826 0.046962313 -0.0009700289 -0.020388892 0.036517866 0.012791669 -0.0050393674
-0.0043222453 0.05233372 0.052820787 -0.026136428 0.039898187 0.056483522 -0.090708196 -0.12898892
-0.0842151 -0.008401088 -0.06550397 -0.08378948 0.03843576 0.074834585 -0.01620255 0.035569485
0.04078035 0.029445417 -0.014112074 0.016883517 0.04152511 0.0032628877 0.001441161 0.060194578
-0.01931882 -0.070082374 0.008078045 -0.03627923 -0.0032598514 -0.017189655 0.00076333195 0.076798975
0.0032183528 -0.043641448 -0.07411835 -0.06766782 0.02701152 0.008993087 0.027642595 0.040328164
0.08523406 0.048732504 0.017703503 -0.0043023103 -0.0078827 0.05502212 0.029731797 -0.02631333
-0.021516424 -0.031597685 -0.03441015 -0.024604494 -0.05690881 -0.06887397 0.019651752 0.032492608
-0.02199718 0.06567487 0.06767734 -0.0051442725 0.10578446 -0.014041092 -0.028951557 0.054630436
-0.048819896 -0.05497404 -0.015929928 -0.019209549 -0.050517518 -0.08546197 -0.06444093 -0.057542436
-0.025454186 -0.01581212 0.010460033 -0.024154415 -0.003079602 -0.025624497 -0.0112178745 -0.07718265
-0.05926647 0.00692225 -0.035947558 0.04575749 0.03990547 0.020688841 0.054460015 -0.04148532
-0.029011615 0.030396188 0.05688696 0.035988107 0.0013105776 0.018547261 0.057870764 0.011103604
-0.00041760743 -0.05297722 -0.027289744 0.0011036535 0.044777162 -0.032433752 0.047675107 0.037101712
0.0029010389 -0.004375048 -0.113118544 -0.074814975 -0.0017595302 -0.046753783 -0.089766555 0.0013541247
-0.020621352 -0.039641127 -0.010006514 -0.010156848 -0.0024230806 0.03185145 0.014726483 -0.04581912
0.037216485 0.006838074 0.011772518 0.0580023 0.035611246 -0.030206228 0.004001797 0.028556483
-0.012593877 -0.017559312 0.016618874 0.014050457 0.004991694 -0.021721156 -0.06828657 -0.026633218

network.6.bias f4 [64]
00000000: c12c 8fbd 0078 c4bd 1c51 ccbd 952b 5c3c
00000010: 9aa5 b2bd f3d6 9bbd 6536 f8bd d906 b3bd
00000020: 3a81 ffbd 8c14 25bd 60e3 06be 9411 21bd
00000030: 9e19 9ebd 6cdf b7bc b199 4fba 3886 6ebd
00000040: c5ec 4dbe 7eea 28be 1945 5ebe af1a 38bd
00000050: 69d9 08be 302d 5dbd 06ec c3bc 3a62 b0bd
00000060: 01b2 21be c6ec bbbd d7c1 96bd c586 ba3b
00000070: 8be5 22be 0515 c7bd 6528 08be 0fdd a4bd
00000080: 01ec f7bd 09fa ef3c 2c15 0cbe ba2e d3bd
00000090: 6107 21bb 9ed7 27be 11b4 303d 97a0 eabd
000000a0: 93d2 173d f837 5d3d 0290 64bc ccb2 03be
000000b0: 5cbb 50bd e9ae 0cbe a0d9 d6bd b090 22bd
000000c0: b450 20be 87a3 a9bd 9c3f 56bd dad9 56bc
000000d0: bc12 2ebe a750 ecbd 91b6 98bd d9fa 73bd
000000e0: dd74 26bd 1d2f 96bd e9ca b03a 36ff d8bb
000000f0: d42f 0dbe 83b6 59bc 0e30 8dbd 94ff 4e3c
-0.06990958 -0.09593201 -0.09976408 0.013438125 -0.08722992 -0.07609358 -0.1211975 -0.087415405
-0.1247582 -0.0403028 -0.13172674 -0.039323404 -0.0771973 -0.022445403 -0.0007919325 -0.05823347
-0.20109852 -0.16495702 -0.21706046 -0.044947322 -0.13364185 -0.053998172 -0.023916256 -0.08612485
-0.1579056 -0.0917602 -0.07361191 0.0056923353 -0.15907876 -0.09720806 -0.1329666 -0.08049976
-0.12105561 0.02929403 -0.13679951 -0.10311647 -0.0024571049 -0.16390845 0.043140475 -0.11456411
0.037066054 0.054008454 -0.01395035 -0.12861174 -0.05095993 -0.13738598 -0.104907274 -0.039688766
-0.15655786 -0.082831435 -0.052306756 -0.013113463 -0.16999334 -0.11538821 -0.07456697 -0.0595654
-0.040638793 -0.07333205 0.0013488206 -0.0066222204 -0.13787776 -0.013288143 -0.06893931 0.012634177

network.8.weight f4 [64]
00000000: 1bf9 883f 6326 8e3f 6c48 8f3f 5e87 8c3f
00000010: 77c1 873f 0210 883f 6209 893f 61d4 843f
00000020: 51d2 963f 356b 8a3f 017b 953f 4a67 893f
00000030: 5593 8f3f bcda 863f 314d 8a3f 0078 8d3f
00000040: 9290 923f e503 903f 7793 8b3f 5bd3 8e3f
00000050: 5d98 863f da10 8c3f a666 7f3f 11de 8a3f
00000060: e332 943f 7b8b 973f dc88 823f 9ce4 863f
00000070: aa06 9c3f f108 8b3f 9406 a03f 2def 833f
00000080: 3f51 8d3f 7971 873f 51e4 863f bfdd 843f
00000090: 4735 893f 1f6d 8c3f 1aea 8d3f 0e6e 873f
000000a0: 9b9e 8a3f 1e09 903f 921d 903f 2860 823f
000000b0: 3d21 953f 1664 903f 1001 893f 5aa5 863f
000000c0: c29a 8c3f 88de 913f 15a7 8c3f 083e 843f
000000d0: d08b 923f 2f3d 8a3f a198 883f 3b4e 8d3f
000000e0: e929 8a3f 116f 833f 0daa 873f 3d44 853f
000000f0: c90e 903f 8440 853f a244 8b3f 471e 873f
1.0701021 1.1105465 1.1193976 1.0978811 1.0605916 1.0629885 1.0705988 1.0377313
1.1782933 1.0813967 1.1678163 1.0734646 1.1216837 1.0535502 1.0804807 1.1052246
1.1450369 1.1251189 1.0904378 1.115825 1.0515248 1.0942643 0.99766004 1.0849019
1.1578029 1.1839441 1.0198016 1.0538516 1.2189534 1.0862104 1.2502007 1.0307366
1.1040419 1.0581504 1.0538427 1.0380172 1.0719384 1.0970801 1.1087067 1.0580461
1.0829653 1.1252782 1.1259024 1.0185595 1.1650769 1.1280544 1.0703449 1.0519211
1.0984728 1.1396036 1.0988489 1.033143 1.1448917 1.0799922 1.0671579 1.1039499
1.079404 1.026827 1.059877 1.041145 1.1254512 1.0410314 1.088032 1.0556115

network.8.bias f4 [64]
00000000: ef07 c73c 2d32 0f3a 9cfa 0f3d 9371 483d
00000010: c04a 66ba c715 8c3d a436 fc3c f165 cebc
00000020: dae1 d9bc a61c 513d bb8f 45ba 6c2e 233d
00000030: fe24 b03b 4803 0fbc 5396 42bb 3b71 0cbc
00000040: 345a 143d 8cf6 7c3b 2948 e53b 1728 efbc
00000050: 3647 57bd 9291 333d 6968 5f3d f2c5 26bd
00000060: 73fa 58bd 7b48 0ebd a962 593d 655a 9f3c
00000070: 3375 cb3b 4bd2 323d 9f00 b4bb cb61 4c3d
00000080: facd 073d b8b2 cf3b 016d 0bbc ba9b 6f3c
00000090: cba2 a43d b9f0 313c 4f2f 29bc afac de3c
000000a0: 70b0 f6bc 1be5 1b3b 2ddd c93c 8b91 efbc
000000b0: 4d5b 4fbd cc8e 84bc 901b 06bd 4b23 73bb
000000c0: 2fd2 563d 51cc 08bc 06fe f1bb 0c6d 303c
000000d0: 9da3 c9bc b0d0 e9bb 815c 04bd 928a 6b3b
000000e0: 763e 2fbc b10b 333b 922a 75bc 9268 0d3c
000000f0: 9d4c f9bc f7be ed3a a113 0abc c7c5 993d
0.024295775 0.0005462494 0.03515111 0.048936438 -0.00087849423 0.06840091 0.030787773 -0.025195094
-0.026596952 0.051052712 -0.0007536371 0.039839193 0.0053755036 -0.00872881 -0.002969165 -0.008571918
0.036218837 0.0038599102 0.0069971276 -0.029193921 -0.052558146 0.04384 0.054542933 -0.04071612
-0.052973222 -0.03473709 0.053072605 0.019452283 0.0062090396 0.043657582 -0.005493238 0.04989795
0.03315542 0.0063384436 -0.008509875 0.01462453 0.08038863 0.010860615 -0.010326221 0.027181951
-0.030113429 0.002378768 0.024641598 -0.029244205 -0.05062418 -0.016181372 -0.03274113 -0.0037099894
0.05244654 -0.008349494 -0.0073850183 0.010768186 -0.02461415 -0.007135473 -0.03231478 0.0035940749
-0.010696044 0.00273202 -0.014963763 0.008630889 -0.03043204 0.0018138577 -0.008427531 0.07508426

network.8.running_mean f4 [64]
00000000: 390d b43e 90e6 953e 5916 c13e a957 b13e
00000010: 5e40 be3e a745 a53e 48e6 b23e db36 903e
00000020: 787c 4e3e 1d1a ac3e f0cb 6b3e 47bc 053f
00000030: 151e 933e eba2 dd3e e40b af3e f809 a83e
00000040: cbb7 8c3e a21d b13e 2b20 1a3f c434 9e3e
00000050: 5b62 bf3e 9aaf a23e 8442 943e 36d8 8f3e
00000060: d332 cc3e d0c9 593e 206b ad3e 5536 b63e
00000070: ceb5 e43e 2a90 9a3e 4483 9d3e 6543 c03e
00000080: b49a 7c3e 8401 c23e dc07 323e b66a a93e
00000090: 3e48 a63e 9b24 b43e e100 ab3e c74c 963e
000000a0: c5d1 1d3f 2862 c43e 2961 8e3e 585b 833e
000000b0: f07b 003f 2e05 e93e b837 9b3e 0d6b f13e
000000c0: 2fea ae3e 0d6a 8e3e c08d ae3e ca45 ae3e
000000d0: 999c 543e eb79 c63e 53bf b93e d8b4 b13e
000000e0: 13f6 a33e e3e3 9e3e 9b09 b43e b9a8 f33e
000000f0: e2cf a13e 20e3 c23e 05a3 cd3e dfbc 2c3f
0.35166338 0.29277468 0.37712362 0.34637192 0.37158483 0.32279703 0.34941316 0.2816685
0.20164669 0.33613673 0.23027015 0.52240413 0.28733888 0.4328836 0.3418876 0.32820106
0.27483973 0.3459292 0.60205334 0.30899632 0.37379727 0.31774598 0.28956997 0.28094643
0.39882526 0.21268392 0.33870792 0.35588327 0.44669956 0.30188113 0.3076421 0.37551418
0.2466839 0.3789178 0.1738581 0.33089226 0.3247699 0.35184178 0.33399108 0.2935545
0.6164821 0.38356137 0.27808502 0.25655627 0.50189114 0.45511764 0.30315948 0.47151986
0.34163043 0.27815285 0.34092522 0.3403762 0.20762862 0.3876489 0.3627878 0.34708285
0.32023677 0.3103324 0.35163578 0.47589663 0.31603914 0.38063908 0.40163437 0.67475694

network.8.running_var f4 [64]
00000000: 826e ed3e b200 a53e f447 033f 8108 cd3e
00000010: 3e2a fd3e 0345 cf3e bead d53e ef7c af3e
00000020: c7c3 8a3e 3d52 bc3e 3f87 8b3e 95bd 473f
00000030: 77f5 b53e 4e8c 1c3f 1fe0 b43e 307a b03e
00000040: 6f9b a43e f13a d43e 5c73 6a3f 6235 bd3e
00000050: 1db0 e83e ee3b bc3e 2f91 9c3e 1b94 af3e
00000060: 6fa5 1a3f d7c2 883e eba2 cc3e 9147 ce3e
00000070: d8b3 393f b8ad b23e 329a ce3e 6524 ef3e
00000080: f262 8d3e 963b e23e 17d4 3f3e 5e7e c93e
00000090: 2fd2 c83e 7c5d d53e 5436 c13e da44 a53e
000000a0: 35c8 503f 3a1f bb3e 2cbc 923e 57eb 953e
000000b0: 8a3e 3b3f faf5 1f3f c58a aa3e c423 f93e
000000c0: 74a4 c83e ce3a c73e d88b bd3e 66ca b83e
000000d0: 769e 913e 0351 fe3e 4bec de3e 597a 0f3f
000000e0: 9aa0 be3e 4d5f be3e c6d6 c23e 07cf f83e
000000f0: d297 d33e 00b2 d33e b6eb 003f 1935 903f
0.46373373 0.32227093 0.51281667 0.4004555 0.4944629 0.4048234 0.41734117 0.34275004
0.2710249 0.36781493 0.27251622 0.78023654 0.35538837 0.6115159 0.3532724 0.34468222
0.32149836 0.4145122 0.91582274 0.3695479 0.45446864 0.36764473 0.30579516 0.34292683
0.6040868 0.2671115 0.39968047 0.40288976 0.72540045 0.34898162 0.40352017 0.46707454
0.27614552 0.44186085 0.1873325 0.39354223 0.39222857 0.41672885 0.37736762 0.32279092
0.8155549 0.3654726 0.2865919 0.29281113 0.731423 0.62484705 0.33308998 0.486601
0.39187968 0.38912052 0.37020755 0.36091918 0.2844121 0.49671182 0.43539652 0.5604606
0.37231904 0.37182084 0.38054484 0.4859545 0.41326767 0.4134674 0.50359666 1.1266204

network.10.weight f4 [10, 1024]
00000000: a861 2abd 7e13 053c b16e 223b 0930 80bc
00000010: d7d2 1bbd 6e49 febc 566e bbbb 1f69 3dbd
00000020: 70ba aebc d27b 673d efce a13c eb39 18bd
00000030: e36d db3b e89d 8d3d 72df 403d cc51 14bb
00000040: 3817 5c3c 6cc6 b3bb 5b67 e43b 3f6c ac3c
00000050: f20c 01be 14c8 cfbb 6a9b c23c 55a4 aabd
00000060: d6ef febd c5b2 d4bd f8b0 5fbd 627e 3fbd
00000070: dccc 8cbd 13fd 77bd 118f b7bc e358 fabc
00000080: c454 3fbc 91d9 19bd a48b 09bc 330b 43bd
00000090: 09d1 453c ea28 1cba bdcc b93c c40c 813d
000000a0: 91c6 b0bc 1a2e ab3c 6240 1dbb d3e8 193d
000000b0: 723d b33b 0265 8d3c 2e45 fb3c 11e7 c03b
000000c0: aba2 34bd ac45 11bd 136a 4dbd 4226 3cbd
000000d0: c557 413d 246f b63b acf5 eb39 328d a1bc
000000e0: ef26 a43c c891 423d 38d4 9b3c 8f12 493d
000000f0: 22fd e33b e4a8 7a3c d2a9 18bc df3e 583c
00000100: 6048 2abd 309e 603c e7ef bcbc d24f 63bc
00000110: 7a3b c2bc 2300 ae3c ad19 06bc f4d9 84bd
00000120: e0f0 18bc b2b6 283d 0e7f c63c 7d3d 24bd
00000130: 1ca5 03bd 71f5 be3c f869 983c faa2 403c
00000140: 5ae0 273d f3d3 743d fc61 fe3c 033f e83c
00000150: a517 eb3b ac3c 073d 41e3 803d fd1f 20bc
00000160: 718d 7e3c 4fcf ff3c d6a0 833d 4601 aa3c
00000170: d125 2f3d 1cc9 6ebb a232 c73c 52c8 d33c
00000180: 8745 44bb e25a 2cbc 5c3f 963d 455d 883d
00000190: b464 a43c 4069 1dbd a6b6 5a3d b010 783d
000001a0: 78ad 993c 8f9c 303c 7585 c13d 2bac eb3b
000001b0: feb2 fdbc d8fc 7e3c d8a3 bb3c c8c1 8438
000001c0: d460 c1bc d027 d33c cab0 103d a32e 113b
000001d0: 232f 5fbc a220 653b 5d8e 31bd f3f5 0fbd
000001e0: 8680 3cbd 44d0 05bd 0cf4 0abd 5ec4 7cbc
000001f0: 9156 95bd e8cc 7dbb fe25 c0bc eee8 45bd
00000200: 2028 073d 0c12 a2bb c2cf 3e3c 3620 413d
00000210: d3be 803c 2a23 24bc 48cf 183c fd04 023d
00000220: 1c37 54bd b44d 23bd af98 6bbb 50a3 013c
00000230: 09a5 6abd 325c 54bd 3e3c 4dbd e26d 01bd
00000240: 5c46 e83c 0c9f a63c 09e0 9e3b 10a3 65bc
00000250: 16d9 52bc 3314 6b3b 56e9 12bd 7f63 2f3b
00000260: f852 a4bc 319b bcbc 5fdd fdbb 35e8 bd3c
00000270: 3f79 a33d ab5e 3a3d 46bb d33c 36e9 da3c
00000280: c3aa 243c 316c 80bb 98d7 5fbd 2e20 29bd
00000290: ed54 8d3c 829f d0bd 022a edbd ce8a 8dbd
000002a0: d37b b43c e5e3 adbd c7d3 9fbd d609 c6bc
000002b0: 7123 e13c 078b 7fbd 8e7d 13bd d7f8 293d
000002c0: e9f5 9d3c a5de f7ba a26c d8bc a163 01bd
000002d0: 05f8 73bd d6f1 17bd b5bc 133d 1658 9c3c
000002e0: a3b7 b5bd 4811 8c3d 9a79 a73d 51a0 923c
000002f0: 0637 27bd e22b 853c c083 023d 5976 90bc
00000300: 2732 333d 99db 75bd 4758 70bd a79a 3bbd
00000310: 93c4 efbb 0241 883b 6e93 26ba 96f2 f23b
00000320: 2115 0a3d 1d43 41bd 9e0f d8bc 3c3c 4839
00000330: 73dd 9c3c 69d3 a1bc e990 3d39 f090 ca3b
00000340: d3e3 1bbd d442 893a a68b 9cbc 2881 5e3b
00000350: fc8f a1bc 7f1a c83c 8938 693d 1e70 813d
00000360: 29c4 2e3c f318 a9bb d609 173d 2a6d e53c
00000370: 267b 6fbd 8621 613c a7c4 043d 3616 eabb
00000380: f319 863c 829c 943d ad61 483d 0f3b 123d
00000390: 9ce8 953d 85d7 753d de85 473d 25b0 c1bc
000003a0: 3717 3a3d 8bec 1e3d 77c8 5e3c 3db4 02bd
000003b0: 84c3 183d 8aab db3b df57 6d3c 277c 753d
000003c0: 91ea 93bb 4627 a6bc 79af 9dbc a198 c8bd
000003d0: 105b 58bd 7249 8c3b 3076 d33c 2ef9 4fbd
000003e0: 9084 07bc 2d42 963d d8b0 413d 7890 2f3b
000003f0: 01ce dd39 731f f63c 6b29 2e3d 7903 d4bc
-0.04159704 0.008122323 0.0024785216 -0.015647905 -0.03804287 -0.031040873 -0.00571994 -0.04624283
-0.021329135 0.05651457 0.019751994 -0.03716461 0.006696449 0.06914884 0.047088094 -0.0022631763
0.01343327 -0.0054863 0.0069703287 0.02104771 -0.12602594 -0.00634099 0.023755748 -0.08332125
-0.12448089 -0.1038566 -0.05461213 -0.046751387 -0.06875011 -0.060544085 -0.022407087 -0.030559963
-0.011677925 -0.037561003 -0.008395109 -0.047618102 0.012073764 -0.00059570244 0.022680635 0.06301263
-0.021579059 0.020896006 -0.0023994674 0.037575554 0.0054699713 0.017260078 0.030672636 0.0058869203
-0.044100445 -0.035466835 -0.05014999 -0.045934923 0.047202844 0.005567448 0.00045005733 -0.019720647
0.020038096 0.04750231 0.019022092 0.049089964 0.006957666 0.015299056 -0.009317832 0.013198583
-0.04157293 0.01370959 -0.023063613 -0.013874011 -0.023710001 0.0212403 -0.0081848325 -0.06486884
-0.009334773 0.041189857 0.024230506 -0.040097702 -0.032139882 0.023310395 0.018605217 0.011757607
0.040985443 0.059772443 0.031052582 0.028350359 0.0071744495 0.033016846 0.06293345 -0.009773252
0.015536652 0.031226782 0.064271614 0.02075256 0.042760674 -0.0036435788 0.024316136 0.025852356
-0.0029948668 -0.010519715 0.073363036 0.06658415 0.02006755 -0.038430452 0.053396843 0.06056279
0.018759474 0.010779514 0.09449283 0.007192155 -0.03096914 0.015563212 0.022905275 6.330345e-05
-0.023605742 0.02577582 0.03532485 0.0022153042 -0.013622078 0.0034962078 -0.04334866 -0.035146665
-0.046021007 -0.03266932 -0.033924147 -0.015427677 -0.07291902 -0.003872687 -0.023455616 -0.048317842
0.03299725 -0.004945999 0.011646213 0.04714986 0.015715992 -0.010018149 0.009326763 0.03174304
-0.05181037 -0.039869025 -0.003594916 0.007912472 -0.057286296 -0.051845737 -0.05010628 -0.031598933
0.028353862 0.020339511 0.0048484844 -0.014015928 -0.01286914 0.0035870194 -0.035867058 0.0026762185
-0.020059094 -0.02302322 -0.0077473368 0.023182014 0.0798211 0.04550044 0.025846135 0.026722532
0.010050478 -0.0039191474 -0.054648966 -0.041290455 0.01725241 -0.10186674 -0.11580278 -0.069112405
0.0220317 -0.08490733 -0.07804065 -0.024174612 0.02748272 -0.062388446 -0.03600841 0.041497078
0.019282298 -0.0018910958 -0.026418988 -0.031589154 -0.0595627 -0.037095867 0.036068637 0.019084971
-0.088729165 0.06839234 0.081774905 0.01789871 -0.04082396 0.016256277 0.031863928 -0.017634558
0.043749 -0.060023878 -0.058677938 -0.045801785 -0.0073171346 0.00415814 -0.0006354366 0.0074141724
0.033711556 -0.047183145 -0.026374634 0.00019095925 0.019148564 -0.019754129 0.00018078428 0.0061818287
-0.038059067 0.0010472187 -0.019109558 0.0033951495 -0.019721977 0.024426697 0.05693868 0.06320213
0.010666885 -0.005160445 0.036874615 0.028006155 -0.058467053 0.013740903 0.032414105 -0.007143761
0.016369795 0.07256414 0.048921276 0.035700854 0.07319757 0.06001999 0.04871165 -0.023643563
0.045432296 0.038799804 0.013597599 -0.03191017 0.037295833 0.0067037987 0.014486282 0.059932854
-0.0045140465 -0.020282399 -0.019248711 -0.09794737 -0.05282122 0.0042812163 0.025813192 -0.050774746
-0.008271351 0.07336841 0.047287792 0.002678899 0.0004230589 0.030044293 0.042519968 -0.025880562

network.10.bias f4 [10]
00000000: 9ac3 bd3c 28b7 babc 4b37 093c 040e 7b3d
00000010: eda5 1d3d f223 2ebc 2b93 fdbc bad8 f1bc
00000020: 35a5 10bd f185 efbb
0.02316456 -0.022792414 0.008374999 0.061292663 0.038488317 -0.010628687 -0.030953964 -0.029522289
-0.035313804 -0.007309668
